…
I1220 15:41:59.869567 12423 net.cpp:287] The NetState phase (0) differed from the phase (1) specified by a rule in layer loss3/top-1
I1220 15:41:59.870276 12423 net.cpp:42] Initializing net from parameters: 
name: "GoogleNet_places205"
state {
  phase: TRAIN
}
layer {
  name: "data"
  type: "ImageData"
  top: "data"
  top: "label"
  include {
    phase: TRAIN
  }
  transform_param {
    mirror: true
    crop_size: 224
    mean_file: "/home/tj/tpj/mltask/MIT/MIT_mean.binaryproto"
  }
  image_data_param {
    source: "/home/tj/tpj/mltask/MIT/traindata_MIT_256_list_addpre.txt"
    batch_size: 10
  }
}
layer {
  name: "conv1/7x7_s2"
  type: "Convolution"
  bottom: "data"
  top: "conv1/7x7_s2"
  param {
    lr_mult: 1
    decay_mult: 1
  }
  param {
    lr_mult: 2
    decay_mult: 0
  }
  convolution_param {
    num_output: 64
    pad: 3
    kernel_size: 7
    stride: 2
    weight_filler {
      type: "xavier"
      std: 0.1
    }
    bias_filler {
      type: "constant"
      value: 0.2
    }
  }
}
layer {
  name: "conv1/relu_7x7_p"
  type: "ReLU"
  bottom: "conv1/7x7_s2"
  top: "conv1/7x7_s2"
}
layer {
  name: "pool1/3x3_s2"
  type: "Pooling"
  bottom: "conv1/7x7_s2"
  top: "pool1/3x3_s2"
  pooling_param {
    pool: MAX
    kernel_size: 3
    stride: 2
  }
}
layer {
  name: "pool1/norm1"
  type: "LRN"
  bottom: "pool1/3x3_s2"
  top: "pool1/norm1"
  lrn_param {
    local_size: 5
    alpha: 0.0001
    beta: 0.75
  }
}
layer {
  name: "conv2/3x3_reduce"
  type: "Convolution"
  bottom: "pool1/norm1"
  top: "conv2/3x3_reduce"
  param {
    lr_mult: 1
    decay_mult: 1
  }
  param {
    lr_mult: 2
    decay_mult: 0
  }
  convolution_param {
    num_output: 64
    kernel_size: 1
    weight_filler {
      type: "xavier"
      std: 0.1
    }
    bias_filler {
      type: "constant"
      value: 0.2
    }
  }
}
layer {
  name: "conv2/relu_3x3_reduce_p"
  type: "ReLU"
  bottom: "conv2/3x3_reduce"
  top: "conv2/3x3_reduce"
}
layer {
  name: "conv2/3x3"
  type: "Convolution"
  bottom: "conv2/3x3_reduce"
  top: "conv2/3x3"
  param {
    lr_mult: 1
    decay_mult: 1
  }
  param {
    lr_mult: 2
    decay_mult: 0
  }
  convolution_param {
    num_output: 192
    pad: 1
    kernel_size: 3
    weight_filler {
      type: "xavier"
      std: 0.03
    }
    bias_filler {
      type: "constant"
      value: 0.2
    }
  }
}
layer {
  name: "conv2/relu_3x3_p"
  type: "ReLU"
  bottom: "conv2/3x3"
  top: "conv2/3x3"
}
layer {
  name: "conv2/norm2"
  type: "LRN"
  bottom: "conv2/3x3"
  top: "conv2/norm2"
  lrn_param {
    local_size: 5
    alpha: 0.0001
    beta: 0.75
  }
}
layer {
  name: "pool2/3x3_s2"
  type: "Pooling"
  bottom: "conv2/norm2"
  top: "pool2/3x3_s2"
  pooling_param {
    pool: MAX
    kernel_size: 3
    stride: 2
  }
}
layer {
  name: "inception_3a/1x1"
  type: "Convolution"
  bottom: "pool2/3x3_s2"
  top: "inception_3a/1x1"
  param {
    lr_mult: 1
    decay_mult: 1
  }
  param {
    lr_mult: 2
    decay_mult: 0
  }
  convolution_param {
    num_output: 64
    kernel_size: 1
    weight_filler {
      type: "xavier"
      std: 0.03
    }
    bias_filler {
      type: "constant"
      value: 0.2
    }
  }
}
layer {
  name: "inception_3a/relu_1x1_p"
  type: "ReLU"
  bottom: "inception_3a/1x1"
  top: "inception_3a/1x1"
}
layer {
  name: "inception_3a/3x3_reduce"
  type: "Convolution"
  bottom: "pool2/3x3_s2"
  top: "inception_3a/3x3_reduce"
  param {
    lr_mult: 1
    decay_mult: 1
  }
  param {
    lr_mult: 2
    decay_mult: 0
  }
  convolution_param {
    num_output: 96
    kernel_size: 1
    weight_filler {
      type: "xavier"
      std: 0.09
    }
    bias_filler {
      type: "constant"
      value: 0.2
    }
  }
}
layer {
  name: "inception_3a/relu_3x3_reduce_p"
  type: "ReLU"
  bottom: "inception_3a/3x3_reduce"
  top: "inception_3a/3x3_reduce"
}
layer {
  name: "inception_3a/3x3"
  type: "Convolution"
  bottom: "inception_3a/3x3_reduce"
  top: "inception_3a/3x3"
  param {
    lr_mult: 1
    decay_mult: 1
  }
  param {
    lr_mult: 2
    decay_mult: 0
  }
  convolution_param {
    num_output: 128
    pad: 1
    kernel_size: 3
    weight_filler {
      type: "xavier"
      std: 0.03
    }
    bias_filler {
      type: "constant"
      value: 0.2
    }
  }
}
layer {
  name: "inception_3a/relu_3x3_p"
  type: "ReLU"
  bottom: "inception_3a/3x3"
  top: "inception_3a/3x3"
}
layer {
  name: "inception_3a/5x5_reduce"
  type: "Convolution"
  bottom: "pool2/3x3_s2"
  top: "inception_3a/5x5_reduce"
  param {
    lr_mult: 1
    decay_mult: 1
  }
  param {
    lr_mult: 2
    decay_mult: 0
  }
  convolution_param {
    num_output: 16
    kernel_size: 1
    weight_filler {
      type: "xavier"
      std: 0.2
    }
    bias_filler {
      type: "constant"
      value: 0.2
    }
  }
}
layer {
  name: "inception_3a/relu_5x5_reduce_p"
  type: "ReLU"
  bottom: "inception_3a/5x5_reduce"
  top: "inception_3a/5x5_reduce"
}
layer {
  name: "inception_3a/5x5"
  type: "Convolution"
  bottom: "inception_3a/5x5_reduce"
  top: "inception_3a/5x5"
  param {
    lr_mult: 1
    decay_mult: 1
  }
  param {
    lr_mult: 2
    decay_mult: 0
  }
  convolution_param {
    num_output: 32
    pad: 2
    kernel_size: 5
    weight_filler {
      type: "xavier"
      std: 0.03
    }
    bias_filler {
      type: "constant"
      value: 0.2
    }
  }
}
layer {
  name: "inception_3a/relu_5x5_p"
  type: "ReLU"
  bottom: "inception_3a/5x5"
  top: "inception_3a/5x5"
}
layer {
  name: "inception_3a/pool"
  type: "Pooling"
  bottom: "pool2/3x3_s2"
  top: "inception_3a/pool"
  pooling_param {
    pool: MAX
    kernel_size: 3
    stride: 1
    pad: 1
  }
}
layer {
  name: "inception_3a/pool_proj"
  type: "Convolution"
  bottom: "inception_3a/pool"
  top: "inception_3a/pool_proj"
  param {
    lr_mult: 1
    decay_mult: 1
  }
  param {
    lr_mult: 2
    decay_mult: 0
  }
  convolution_param {
    num_output: 32
    kernel_size: 1
    weight_filler {
      type: "xavier"
      std: 0.1
    }
    bias_filler {
      type: "constant"
      value: 0.2
    }
  }
}
layer {
  name: "inception_3a/relu_pool_proj_p"
  type: "ReLU"
  bottom: "inception_3a/pool_proj"
  top: "inception_3a/pool_proj"
}
layer {
  name: "inception_3a/output"
  type: "Concat"
  bottom: "inception_3a/1x1"
  bottom: "inception_3a/3x3"
  bottom: "inception_3a/5x5"
  bottom: "inception_3a/pool_proj"
  top: "inception_3a/output"
}
layer {
  name: "inception_3b/1x1"
  type: "Convolution"
  bottom: "inception_3a/output"
  top: "inception_3b/1x1"
  param {
    lr_mult: 1
    decay_mult: 1
  }
  param {
    lr_mult: 2
    decay_mult: 0
  }
  convolution_param {
    num_output: 128
    kernel_size: 1
    weight_filler {
      type: "xavier"
      std: 0.03
    }
    bias_filler {
      type: "constant"
      value: 0.2
    }
  }
}
layer {
  name: "inception_3b/relu_1x1_p"
  type: "ReLU"
  bottom: "inception_3b/1x1"
  top: "inception_3b/1x1"
}
layer {
  name: "inception_3b/3x3_reduce"
  type: "Convolution"
  bottom: "inception_3a/output"
  top: "inception_3b/3x3_reduce"
  param {
    lr_mult: 1
    decay_mult: 1
  }
  param {
    lr_mult: 2
    decay_mult: 0
  }
  convolution_param {
    num_output: 128
    kernel_size: 1
    weight_filler {
      type: "xavier"
      std: 0.09
    }
    bias_filler {
      type: "constant"
      value: 0.2
    }
  }
}
layer {
  name: "inception_3b/relu_3x3_reduce_p"
  type: "ReLU"
  bottom: "inception_3b/3x3_reduce"
  top: "inception_3b/3x3_reduce"
}
layer {
  name: "inception_3b/3x3"
  type: "Convolution"
  bottom: "inception_3b/3x3_reduce"
  top: "inception_3b/3x3"
  param {
    lr_mult: 1
    decay_mult: 1
  }
  param {
    lr_mult: 2
    decay_mult: 0
  }
  convolution_param {
    num_output: 192
    pad: 1
    kernel_size: 3
    weight_filler {
      type: "xavier"
      std: 0.03
    }
    bias_filler {
      type: "constant"
      value: 0.2
    }
  }
}
layer {
  name: "inception_3b/relu_3x3_p"
  type: "ReLU"
  bottom: "inception_3b/3x3"
  top: "inception_3b/3x3"
}
layer {
  name: "inception_3b/5x5_reduce"
  type: "Convolution"
  bottom: "inception_3a/output"
  top: "inception_3b/5x5_reduce"
  param {
    lr_mult: 1
    decay_mult: 1
  }
  param {
    lr_mult: 2
    decay_mult: 0
  }
  convolution_param {
    num_output: 32
    kernel_size: 1
    weight_filler {
      type: "xavier"
      std: 0.2
    }
    bias_filler {
      type: "constant"
      value: 0.2
    }
  }
}
layer {
  name: "inception_3b/relu_5x5_reduce_p"
  type: "ReLU"
  bottom: "inception_3b/5x5_reduce"
  top: "inception_3b/5x5_reduce"
}
layer {
  name: "inception_3b/5x5"
  type: "Convolution"
  bottom: "inception_3b/5x5_reduce"
  top: "inception_3b/5x5"
  param {
    lr_mult: 1
    decay_mult: 1
  }
  param {
    lr_mult: 2
    decay_mult: 0
  }
  convolution_param {
    num_output: 96
    pad: 2
    kernel_size: 5
    weight_filler {
      type: "xavier"
      std: 0.03
    }
    bias_filler {
      type: "constant"
      value: 0.2
    }
  }
}
layer {
  name: "inception_3b/relu_5x5_p"
  type: "ReLU"
  bottom: "inception_3b/5x5"
  top: "inception_3b/5x5"
}
layer {
  name: "inception_3b/pool"
  type: "Pooling"
  bottom: "inception_3a/output"
  top: "inception_3b/pool"
  pooling_param {
    pool: MAX
    kernel_size: 3
    stride: 1
    pad: 1
  }
}
layer {
  name: "inception_3b/pool_proj"
  type: "Convolution"
  bottom: "inception_3b/pool"
  top: "inception_3b/pool_proj"
  param {
    lr_mult: 1
    decay_mult: 1
  }
  param {
    lr_mult: 2
    decay_mult: 0
  }
  convolution_param {
    num_output: 64
    kernel_size: 1
    weight_filler {
      type: "xavier"
      std: 0.1
    }
    bias_filler {
      type: "constant"
      value: 0.2
    }
  }
}
layer {
  name: "inception_3b/relu_pool_proj_p"
  type: "ReLU"
  bottom: "inception_3b/pool_proj"
  top: "inception_3b/pool_proj"
}
layer {
  name: "inception_3b/output"
  type: "Concat"
  bottom: "inception_3b/1x1"
  bottom: "inception_3b/3x3"
  bottom: "inception_3b/5x5"
  bottom: "inception_3b/pool_proj"
  top: "inception_3b/output"
}
layer {
  name: "pool3/3x3_s2"
  type: "Pooling"
  bottom: "inception_3b/output"
  top: "pool3/3x3_s2"
  pooling_param {
    pool: MAX
    kernel_size: 3
    stride: 2
  }
}
layer {
  name: "inception_4a/1x1"
  type: "Convolution"
  bottom: "pool3/3x3_s2"
  top: "inception_4a/1x1"
  param {
    lr_mult: 1
    decay_mult: 1
  }
  param {
    lr_mult: 2
    decay_mult: 0
  }
  convolution_param {
    num_output: 192
    kernel_size: 1
    weight_filler {
      type: "xavier"
      std: 0.03
    }
    bias_filler {
      type: "constant"
      value: 0.2
    }
  }
}
layer {
  name: "inception_4a/relu_1x1_p"
  type: "ReLU"
  bottom: "inception_4a/1x1"
  top: "inception_4a/1x1"
}
layer {
  name: "inception_4a/3x3_reduce"
  type: "Convolution"
  bottom: "pool3/3x3_s2"
  top: "inception_4a/3x3_reduce"
  param {
    lr_mult: 1
    decay_mult: 1
  }
  param {
    lr_mult: 2
    decay_mult: 0
  }
  convolution_param {
    num_output: 96
    kernel_size: 1
    weight_filler {
      type: "xavier"
      std: 0.09
    }
    bias_filler {
      type: "constant"
      value: 0.2
    }
  }
}
layer {
  name: "inception_4a/relu_3x3_reduce_p"
  type: "ReLU"
  bottom: "inception_4a/3x3_reduce"
  top: "inception_4a/3x3_reduce"
}
layer {
  name: "inception_4a/3x3"
  type: "Convolution"
  bottom: "inception_4a/3x3_reduce"
  top: "inception_4a/3x3"
  param {
    lr_mult: 1
    decay_mult: 1
  }
  param {
    lr_mult: 2
    decay_mult: 0
  }
  convolution_param {
    num_output: 208
    pad: 1
    kernel_size: 3
    weight_filler {
      type: "xavier"
      std: 0.03
    }
    bias_filler {
      type: "constant"
      value: 0.2
    }
  }
}
layer {
  name: "inception_4a/relu_3x3_p"
  type: "ReLU"
  bottom: "inception_4a/3x3"
  top: "inception_4a/3x3"
}
layer {
  name: "inception_4a/5x5_reduce"
  type: "Convolution"
  bottom: "pool3/3x3_s2"
  top: "inception_4a/5x5_reduce"
  param {
    lr_mult: 1
    decay_mult: 1
  }
  param {
    lr_mult: 2
    decay_mult: 0
  }
  convolution_param {
    num_output: 16
    kernel_size: 1
    weight_filler {
      type: "xavier"
      std: 0.2
    }
    bias_filler {
      type: "constant"
      value: 0.2
    }
  }
}
layer {
  name: "inception_4a/relu_5x5_reduce_p"
  type: "ReLU"
  bottom: "inception_4a/5x5_reduce"
  top: "inception_4a/5x5_reduce"
}
layer {
  name: "inception_4a/5x5"
  type: "Convolution"
  bottom: "inception_4a/5x5_reduce"
  top: "inception_4a/5x5"
  param {
    lr_mult: 1
    decay_mult: 1
  }
  param {
    lr_mult: 2
    decay_mult: 0
  }
  convolution_param {
    num_output: 48
    pad: 2
    kernel_size: 5
    weight_filler {
      type: "xavier"
      std: 0.03
    }
    bias_filler {
      type: "constant"
      value: 0.2
    }
  }
}
layer {
  name: "inception_4a/relu_5x5_p"
  type: "ReLU"
  bottom: "inception_4a/5x5"
  top: "inception_4a/5x5"
}
layer {
  name: "inception_4a/pool"
  type: "Pooling"
  bottom: "pool3/3x3_s2"
  top: "inception_4a/pool"
  pooling_param {
    pool: MAX
    kernel_size: 3
    stride: 1
    pad: 1
  }
}
layer {
  name: "inception_4a/pool_proj"
  type: "Convolution"
  bottom: "inception_4a/pool"
  top: "inception_4a/pool_proj"
  param {
    lr_mult: 1
    decay_mult: 1
  }
  param {
    lr_mult: 2
    decay_mult: 0
  }
  convolution_param {
    num_output: 64
    kernel_size: 1
    weight_filler {
      type: "xavier"
      std: 0.1
    }
    bias_filler {
      type: "constant"
      value: 0.2
    }
  }
}
layer {
  name: "inception_4a/relu_pool_proj_p"
  type: "ReLU"
  bottom: "inception_4a/pool_proj"
  top: "inception_4a/pool_proj"
}
layer {
  name: "inception_4a/output"
  type: "Concat"
  bottom: "inception_4a/1x1"
  bottom: "inception_4a/3x3"
  bottom: "inception_4a/5x5"
  bottom: "inception_4a/pool_proj"
  top: "inception_4a/output"
}
layer {
  name: "loss1/ave_pool"
  type: "Pooling"
  bottom: "inception_4a/output"
  top: "loss1/ave_pool"
  pooling_param {
    pool: AVE
    kernel_size: 5
    stride: 3
  }
}
layer {
  name: "loss1/conv"
  type: "Convolution"
  bottom: "loss1/ave_pool"
  top: "loss1/conv"
  param {
    lr_mult: 1
    decay_mult: 1
  }
  param {
    lr_mult: 2
    decay_mult: 0
  }
  convolution_param {
    num_output: 128
    kernel_size: 1
    weight_filler {
      type: "xavier"
      std: 0.08
    }
    bias_filler {
      type: "constant"
      value: 0.2
    }
  }
}
layer {
  name: "loss1/relu_conv_p"
  type: "ReLU"
  bottom: "loss1/conv"
  top: "loss1/conv"
}
layer {
  name: "loss1/fc"
  type: "InnerProduct"
  bottom: "loss1/conv"
  top: "loss1/fc"
  param {
    lr_mult: 1
    decay_mult: 1
  }
  param {
    lr_mult: 2
    decay_mult: 0
  }
  inner_product_param {
    num_output: 1024
    weight_filler {
      type: "xavier"
      std: 0.02
    }
    bias_filler {
      type: "constant"
      value: 0.2
    }
  }
}
layer {
  name: "loss1/relu_fc_p"
  type: "ReLU"
  bottom: "loss1/fc"
  top: "loss1/fc"
}
layer {
  name: "loss1/drop_fc"
  type: "Dropout"
  bottom: "loss1/fc"
  top: "loss1/fc"
  dropout_param {
    dropout_ratio: 0.7
  }
}
layer {
  name: "loss1/classifier_MIT"
  type: "InnerProduct"
  bottom: "loss1/fc"
  top: "loss1/classifier_MIT"
  param {
    lr_mult: 1
    decay_mult: 1
  }
  param {
    lr_mult: 2
    decay_mult: 0
  }
  inner_product_param {
    num_output: 67
    weight_filler {
      type: "xavier"
      std: 0.0009765625
    }
    bias_filler {
      type: "constant"
      value: 0
    }
  }
}
layer {
  name: "loss1/loss"
  type: "SoftmaxWithLoss"
  bottom: "loss1/classifier_MIT"
  bottom: "label"
  top: "loss1/loss1"
  loss_weight: 0.3
}
layer {
  name: "inception_4b/1x1"
  type: "Convolution"
  bottom: "inception_4a/output"
  top: "inception_4b/1x1"
  param {
    lr_mult: 1
    decay_mult: 1
  }
  param {
    lr_mult: 2
    decay_mult: 0
  }
  convolution_param {
    num_output: 160
    kernel_size: 1
    weight_filler {
      type: "xavier"
      std: 0.03
    }
    bias_filler {
      type: "constant"
      value: 0.2
    }
  }
}
layer {
  name: "inception_4b/relu_1x1_p"
  type: "ReLU"
  bottom: "inception_4b/1x1"
  top: "inception_4b/1x1"
}
layer {
  name: "inception_4b/3x3_reduce"
  type: "Convolution"
  bottom: "inception_4a/output"
  top: "inception_4b/3x3_reduce"
  param {
    lr_mult: 1
    decay_mult: 1
  }
  param {
    lr_mult: 2
    decay_mult: 0
  }
  convolution_param {
    num_output: 112
    kernel_size: 1
    weight_filler {
      type: "xavier"
      std: 0.09
    }
    bias_filler {
      type: "constant"
      value: 0.2
    }
  }
}
layer {
  name: "inception_4b/relu_3x3_reduce_p"
  type: "ReLU"
  bottom: "inception_4b/3x3_reduce"
  top: "inception_4b/3x3_reduce"
}
layer {
  name: "inception_4b/3x3"
  type: "Convolution"
  bottom: "inception_4b/3x3_reduce"
  top: "inception_4b/3x3"
  param {
    lr_mult: 1
    decay_mult: 1
  }
  param {
    lr_mult: 2
    decay_mult: 0
  }
  convolution_param {
    num_output: 224
    pad: 1
    kernel_size: 3
    weight_filler {
      type: "xavier"
      std: 0.03
    }
    bias_filler {
      type: "constant"
      value: 0.2
    }
  }
}
layer {
  name: "inception_4b/relu_3x3_p"
  type: "ReLU"
  bottom: "inception_4b/3x3"
  top: "inception_4b/3x3"
}
layer {
  name: "inception_4b/5x5_reduce"
  type: "Convolution"
  bottom: "inception_4a/output"
  top: "inception_4b/5x5_reduce"
  param {
    lr_mult: 1
    decay_mult: 1
  }
  param {
    lr_mult: 2
    decay_mult: 0
  }
  convolution_param {
    num_output: 24
    kernel_size: 1
    weight_filler {
      type: "xavier"
      std: 0.2
    }
    bias_filler {
      type: "constant"
      value: 0.2
    }
  }
}
layer {
  name: "inception_4b/relu_5x5_reduce_p"
  type: "ReLU"
  bottom: "inception_4b/5x5_reduce"
  top: "inception_4b/5x5_reduce"
}
layer {
  name: "inception_4b/5x5"
  type: "Convolution"
  bottom: "inception_4b/5x5_reduce"
  top: "inception_4b/5x5"
  param {
    lr_mult: 1
    decay_mult: 1
  }
  param {
    lr_mult: 2
    decay_mult: 0
  }
  convolution_param {
    num_output: 64
    pad: 2
    kernel_size: 5
    weight_filler {
      type: "xavier"
      std: 0.03
    }
    bias_filler {
      type: "constant"
      value: 0.2
    }
  }
}
layer {
  name: "inception_4b/relu_5x5_p"
  type: "ReLU"
  bottom: "inception_4b/5x5"
  top: "inception_4b/5x5"
}
layer {
  name: "inception_4b/pool"
  type: "Pooling"
  bottom: "inception_4a/output"
  top: "inception_4b/pool"
  pooling_param {
    pool: MAX
    kernel_size: 3
    stride: 1
    pad: 1
  }
}
layer {
  name: "inception_4b/pool_proj"
  type: "Convolution"
  bottom: "inception_4b/pool"
  top: "inception_4b/pool_proj"
  param {
    lr_mult: 1
    decay_mult: 1
  }
  param {
    lr_mult: 2
    decay_mult: 0
  }
  convolution_param {
    num_output: 64
    kernel_size: 1
    weight_filler {
      type: "xavier"
      std: 0.1
    }
    bias_filler {
      type: "constant"
      value: 0.2
    }
  }
}
layer {
  name: "inception_4b/relu_pool_proj_p"
  type: "ReLU"
  bottom: "inception_4b/pool_proj"
  top: "inception_4b/pool_proj"
}
layer {
  name: "inception_4b/output"
  type: "Concat"
  bottom: "inception_4b/1x1"
  bottom: "inception_4b/3x3"
  bottom: "inception_4b/5x5"
  bottom: "inception_4b/pool_proj"
  top: "inception_4b/output"
}
layer {
  name: "inception_4c/1x1"
  type: "Convolution"
  bottom: "inception_4b/output"
  top: "inception_4c/1x1"
  param {
    lr_mult: 1
    decay_mult: 1
  }
  param {
    lr_mult: 2
    decay_mult: 0
  }
  convolution_param {
    num_output: 128
    kernel_size: 1
    weight_filler {
      type: "xavier"
      std: 0.03
    }
    bias_filler {
      type: "constant"
      value: 0.2
    }
  }
}
layer {
  name: "inception_4c/relu_1x1_p"
  type: "ReLU"
  bottom: "inception_4c/1x1"
  top: "inception_4c/1x1"
}
layer {
  name: "inception_4c/3x3_reduce"
  type: "Convolution"
  bottom: "inception_4b/output"
  top: "inception_4c/3x3_reduce"
  param {
    lr_mult: 1
    decay_mult: 1
  }
  param {
    lr_mult: 2
    decay_mult: 0
  }
  convolution_param {
    num_output: 128
    kernel_size: 1
    weight_filler {
      type: "xavier"
      std: 0.09
    }
    bias_filler {
      type: "constant"
      value: 0.2
    }
  }
}
layer {
  name: "inception_4c/relu_3x3_reduce_p"
  type: "ReLU"
  bottom: "inception_4c/3x3_reduce"
  top: "inception_4c/3x3_reduce"
}
layer {
  name: "inception_4c/3x3"
  type: "Convolution"
  bottom: "inception_4c/3x3_reduce"
  top: "inception_4c/3x3"
  param {
    lr_mult: 1
    decay_mult: 1
  }
  param {
    lr_mult: 2
    decay_mult: 0
  }
  convolution_param {
    num_output: 256
    pad: 1
    kernel_size: 3
    weight_filler {
      type: "xavier"
      std: 0.03
    }
    bias_filler {
      type: "constant"
      value: 0.2
    }
  }
}
layer {
  name: "inception_4c/relu_3x3_p"
  type: "ReLU"
  bottom: "inception_4c/3x3"
  top: "inception_4c/3x3"
}
layer {
  name: "inception_4c/5x5_reduce"
  type: "Convolution"
  bottom: "inception_4b/output"
  top: "inception_4c/5x5_reduce"
  param {
    lr_mult: 1
    decay_mult: 1
  }
  param {
    lr_mult: 2
    decay_mult: 0
  }
  convolution_param {
    num_output: 24
    kernel_size: 1
    weight_filler {
      type: "xavier"
      std: 0.2
    }
    bias_filler {
      type: "constant"
      value: 0.2
    }
  }
}
layer {
  name: "inception_4c/relu_5x5_reduce_p"
  type: "ReLU"
  bottom: "inception_4c/5x5_reduce"
  top: "inception_4c/5x5_reduce"
}
layer {
  name: "inception_4c/5x5"
  type: "Convolution"
  bottom: "inception_4c/5x5_reduce"
  top: "inception_4c/5x5"
  param {
    lr_mult: 1
    decay_mult: 1
  }
  param {
    lr_mult: 2
    decay_mult: 0
  }
  convolution_param {
    num_output: 64
    pad: 2
    kernel_size: 5
    weight_filler {
      type: "xavier"
      std: 0.03
    }
    bias_filler {
      type: "constant"
      value: 0.2
    }
  }
}
layer {
  name: "inception_4c/relu_5x5_p"
  type: "ReLU"
  bottom: "inception_4c/5x5"
  top: "inception_4c/5x5"
}
layer {
  name: "inception_4c/pool"
  type: "Pooling"
  bottom: "inception_4b/output"
  top: "inception_4c/pool"
  pooling_param {
    pool: MAX
    kernel_size: 3
    stride: 1
    pad: 1
  }
}
layer {
  name: "inception_4c/pool_proj"
  type: "Convolution"
  bottom: "inception_4c/pool"
  top: "inception_4c/pool_proj"
  param {
    lr_mult: 1
    decay_mult: 1
  }
  param {
    lr_mult: 2
    decay_mult: 0
  }
  convolution_param {
    num_output: 64
    kernel_size: 1
    weight_filler {
      type: "xavier"
      std: 0.1
    }
    bias_filler {
      type: "constant"
      value: 0.2
    }
  }
}
layer {
  name: "inception_4c/relu_pool_proj_p"
  type: "ReLU"
  bottom: "inception_4c/pool_proj"
  top: "inception_4c/pool_proj"
}
layer {
  name: "inception_4c/output"
  type: "Concat"
  bottom: "inception_4c/1x1"
  bottom: "inception_4c/3x3"
  bottom: "inception_4c/5x5"
  bottom: "inception_4c/pool_proj"
  top: "inception_4c/output"
}
layer {
  name: "inception_4d/1x1"
  type: "Convolution"
  bottom: "inception_4c/output"
  top: "inception_4d/1x1"
  param {
    lr_mult: 1
    decay_mult: 1
  }
  param {
    lr_mult: 2
    decay_mult: 0
  }
  convolution_param {
    num_output: 112
    kernel_size: 1
    weight_filler {
      type: "xavier"
      std: 0.03
    }
    bias_filler {
      type: "constant"
      value: 0.2
    }
  }
}
layer {
  name: "inception_4d/relu_1x1_p"
  type: "ReLU"
  bottom: "inception_4d/1x1"
  top: "inception_4d/1x1"
}
layer {
  name: "inception_4d/3x3_reduce"
  type: "Convolution"
  bottom: "inception_4c/output"
  top: "inception_4d/3x3_reduce"
  param {
    lr_mult: 1
    decay_mult: 1
  }
  param {
    lr_mult: 2
    decay_mult: 0
  }
  convolution_param {
    num_output: 144
    kernel_size: 1
    weight_filler {
      type: "xavier"
      std: 0.09
    }
    bias_filler {
      type: "constant"
      value: 0.2
    }
  }
}
layer {
  name: "inception_4d/relu_3x3_reduce_p"
  type: "ReLU"
  bottom: "inception_4d/3x3_reduce"
  top: "inception_4d/3x3_reduce"
}
layer {
  name: "inception_4d/3x3"
  type: "Convolution"
  bottom: "inception_4d/3x3_reduce"
  top: "inception_4d/3x3"
  param {
    lr_mult: 1
    decay_mult: 1
  }
  param {
    lr_mult: 2
    decay_mult: 0
  }
  convolution_param {
    num_output: 288
    pad: 1
    kernel_size: 3
    weight_filler {
      type: "xavier"
      std: 0.03
    }
    bias_filler {
      type: "constant"
      value: 0.2
    }
  }
}
layer {
  name: "inception_4d/relu_3x3_p"
  type: "ReLU"
  bottom: "inception_4d/3x3"
  top: "inception_4d/3x3"
}
layer {
  name: "inception_4d/5x5_reduce"
  type: "Convolution"
  bottom: "inception_4c/output"
  top: "inception_4d/5x5_reduce"
  param {
    lr_mult: 1
    decay_mult: 1
  }
  param {
    lr_mult: 2
    decay_mult: 0
  }
  convolution_param {
    num_output: 32
    kernel_size: 1
    weight_filler {
      type: "xavier"
      std: 0.2
    }
    bias_filler {
      type: "constant"
      value: 0.2
    }
  }
}
layer {
  name: "inception_4d/relu_5x5_reduce_p"
  type: "ReLU"
  bottom: "inception_4d/5x5_reduce"
  top: "inception_4d/5x5_reduce"
}
layer {
  name: "inception_4d/5x5"
  type: "Convolution"
  bottom: "inception_4d/5x5_reduce"
  top: "inception_4d/5x5"
  param {
    lr_mult: 1
    decay_mult: 1
  }
  param {
    lr_mult: 2
    decay_mult: 0
  }
  convolution_param {
    num_output: 64
    pad: 2
    kernel_size: 5
    weight_filler {
      type: "xavier"
      std: 0.03
    }
    bias_filler {
      type: "constant"
      value: 0.2
    }
  }
}
layer {
  name: "inception_4d/relu_5x5_p"
  type: "ReLU"
  bottom: "inception_4d/5x5"
  top: "inception_4d/5x5"
}
layer {
  name: "inception_4d/pool"
  type: "Pooling"
  bottom: "inception_4c/output"
  top: "inception_4d/pool"
  pooling_param {
    pool: MAX
    kernel_size: 3
    stride: 1
    pad: 1
  }
}
layer {
  name: "inception_4d/pool_proj"
  type: "Convolution"
  bottom: "inception_4d/pool"
  top: "inception_4d/pool_proj"
  param {
    lr_mult: 1
    decay_mult: 1
  }
  param {
    lr_mult: 2
    decay_mult: 0
  }
  convolution_param {
    num_output: 64
    kernel_size: 1
    weight_filler {
      type: "xavier"
      std: 0.1
    }
    bias_filler {
      type: "constant"
      value: 0.2
    }
  }
}
layer {
  name: "inception_4d/relu_pool_proj_p"
  type: "ReLU"
  bottom: "inception_4d/pool_proj"
  top: "inception_4d/pool_proj"
}
layer {
  name: "inception_4d/output"
  type: "Concat"
  bottom: "inception_4d/1x1"
  bottom: "inception_4d/3x3"
  bottom: "inception_4d/5x5"
  bottom: "inception_4d/pool_proj"
  top: "inception_4d/output"
}
layer {
  name: "loss2/ave_pool"
  type: "Pooling"
  bottom: "inception_4d/output"
  top: "loss2/ave_pool"
  pooling_param {
    pool: AVE
    kernel_size: 5
    stride: 3
  }
}
layer {
  name: "loss2/conv"
  type: "Convolution"
  bottom: "loss2/ave_pool"
  top: "loss2/conv"
  param {
    lr_mult: 1
    decay_mult: 1
  }
  param {
    lr_mult: 2
    decay_mult: 0
  }
  convolution_param {
    num_output: 128
    kernel_size: 1
    weight_filler {
      type: "xavier"
      std: 0.08
    }
    bias_filler {
      type: "constant"
      value: 0.2
    }
  }
}
layer {
  name: "loss2/relu_conv_p"
  type: "ReLU"
  bottom: "loss2/conv"
  top: "loss2/conv"
}
layer {
  name: "loss2/fc"
  type: "InnerProduct"
  bottom: "loss2/conv"
  top: "loss2/fc"
  param {
    lr_mult: 1
    decay_mult: 1
  }
  param {
    lr_mult: 2
    decay_mult: 0
  }
  inner_product_param {
    num_output: 1024
    weight_filler {
      type: "xavier"
      std: 0.02
    }
    bias_filler {
      type: "constant"
      value: 0.2
    }
  }
}
layer {
  name: "loss2/relu_fc_p"
  type: "ReLU"
  bottom: "loss2/fc"
  top: "loss2/fc"
}
layer {
  name: "loss2/drop_fc"
  type: "Dropout"
  bottom: "loss2/fc"
  top: "loss2/fc"
  dropout_param {
    dropout_ratio: 0.7
  }
}
layer {
  name: "loss2/classifier_MIT"
  type: "InnerProduct"
  bottom: "loss2/fc"
  top: "loss2/classifier_MIT"
  param {
    lr_mult: 1
    decay_mult: 1
  }
  param {
    lr_mult: 2
    decay_mult: 0
  }
  inner_product_param {
    num_output: 67
    weight_filler {
      type: "xavier"
      std: 0.0009765625
    }
    bias_filler {
      type: "constant"
      value: 0
    }
  }
}
layer {
  name: "loss2/loss"
  type: "SoftmaxWithLoss"
  bottom: "loss2/classifier_MIT"
  bottom: "label"
  top: "loss2/loss1"
  loss_weight: 0.3
}
layer {
  name: "inception_4e/1x1"
  type: "Convolution"
  bottom: "inception_4d/output"
  top: "inception_4e/1x1"
  param {
    lr_mult: 1
    decay_mult: 1
  }
  param {
    lr_mult: 2
    decay_mult: 0
  }
  convolution_param {
    num_output: 256
    kernel_size: 1
    weight_filler {
      type: "xavier"
      std: 0.03
    }
    bias_filler {
      type: "constant"
      value: 0.2
    }
  }
}
layer {
  name: "inception_4e/relu_1x1_p"
  type: "ReLU"
  bottom: "inception_4e/1x1"
  top: "inception_4e/1x1"
}
layer {
  name: "inception_4e/3x3_reduce"
  type: "Convolution"
  bottom: "inception_4d/output"
  top: "inception_4e/3x3_reduce"
  param {
    lr_mult: 1
    decay_mult: 1
  }
  param {
    lr_mult: 2
    decay_mult: 0
  }
  convolution_param {
    num_output: 160
    kernel_size: 1
    weight_filler {
      type: "xavier"
      std: 0.09
    }
    bias_filler {
      type: "constant"
      value: 0.2
    }
  }
}
layer {
  name: "inception_4e/relu_3x3_reduce_p"
  type: "ReLU"
  bottom: "inception_4e/3x3_reduce"
  top: "inception_4e/3x3_reduce"
}
layer {
  name: "inception_4e/3x3"
  type: "Convolution"
  bottom: "inception_4e/3x3_reduce"
  top: "inception_4e/3x3"
  param {
    lr_mult: 1
    decay_mult: 1
  }
  param {
    lr_mult: 2
    decay_mult: 0
  }
  convolution_param {
    num_output: 320
    pad: 1
    kernel_size: 3
    weight_filler {
      type: "xavier"
      std: 0.03
    }
    bias_filler {
      type: "constant"
      value: 0.2
    }
  }
}
layer {
  name: "inception_4e/relu_3x3_p"
  type: "ReLU"
  bottom: "inception_4e/3x3"
  top: "inception_4e/3x3"
}
layer {
  name: "inception_4e/5x5_reduce"
  type: "Convolution"
  bottom: "inception_4d/output"
  top: "inception_4e/5x5_reduce"
  param {
    lr_mult: 1
    decay_mult: 1
  }
  param {
    lr_mult: 2
    decay_mult: 0
  }
  convolution_param {
    num_output: 32
    kernel_size: 1
    weight_filler {
      type: "xa
I1220 15:41:59.870911 12423 layer_factory.hpp:74] Creating layer data
I1220 15:41:59.870930 12423 net.cpp:90] Creating Layer data
I1220 15:41:59.870936 12423 net.cpp:368] data -> data
I1220 15:41:59.870959 12423 net.cpp:368] data -> label
I1220 15:41:59.870970 12423 net.cpp:120] Setting up data
I1220 15:41:59.870975 12423 data_transformer.cpp:23] Loading mean file from: /home/tj/tpj/mltask/MIT/MIT_mean.binaryproto
I1220 15:41:59.884011 12423 image_data_layer.cpp:36] Opening file /home/tj/tpj/mltask/MIT/traindata_MIT_256_list_addpre.txt
I1220 15:41:59.902120 12423 image_data_layer.cpp:51] A total of 5360 images.
I1220 15:41:59.944254 12423 image_data_layer.cpp:74] output data size: 10,3,224,224
I1220 15:41:59.945812 12423 net.cpp:127] Top shape: 10 3 224 224 (1505280)
I1220 15:41:59.945829 12423 net.cpp:127] Top shape: 10 (10)
I1220 15:41:59.945837 12423 layer_factory.hpp:74] Creating layer label_data_1_split
I1220 15:41:59.945849 12423 net.cpp:90] Creating Layer label_data_1_split
I1220 15:41:59.945855 12423 net.cpp:410] label_data_1_split <- label
I1220 15:41:59.945865 12423 net.cpp:368] label_data_1_split -> label_data_1_split_0
I1220 15:41:59.945878 12423 net.cpp:368] label_data_1_split -> label_data_1_split_1
I1220 15:41:59.945883 12423 net.cpp:368] label_data_1_split -> label_data_1_split_2
I1220 15:41:59.945889 12423 net.cpp:120] Setting up label_data_1_split
I1220 15:41:59.945896 12423 net.cpp:127] Top shape: 10 (10)
I1220 15:41:59.945900 12423 net.cpp:127] Top shape: 10 (10)
I1220 15:41:59.945904 12423 net.cpp:127] Top shape: 10 (10)
I1220 15:41:59.945914 12423 layer_factory.hpp:74] Creating layer conv1/7x7_s2
I1220 15:41:59.945931 12423 net.cpp:90] Creating Layer conv1/7x7_s2
I1220 15:41:59.945935 12423 net.cpp:410] conv1/7x7_s2 <- data
I1220 15:41:59.945941 12423 net.cpp:368] conv1/7x7_s2 -> conv1/7x7_s2
I1220 15:41:59.945950 12423 net.cpp:120] Setting up conv1/7x7_s2
I1220 15:41:59.946051 12423 net.cpp:127] Top shape: 10 64 112 112 (8028160)
I1220 15:41:59.946064 12423 layer_factory.hpp:74] Creating layer conv1/relu_7x7_p
I1220 15:41:59.946072 12423 net.cpp:90] Creating Layer conv1/relu_7x7_p
I1220 15:41:59.946076 12423 net.cpp:410] conv1/relu_7x7_p <- conv1/7x7_s2
I1220 15:41:59.946081 12423 net.cpp:357] conv1/relu_7x7_p -> conv1/7x7_s2 (in-place)
I1220 15:41:59.946087 12423 net.cpp:120] Setting up conv1/relu_7x7_p
I1220 15:41:59.946092 12423 net.cpp:127] Top shape: 10 64 112 112 (8028160)
I1220 15:41:59.946095 12423 layer_factory.hpp:74] Creating layer pool1/3x3_s2
I1220 15:41:59.946101 12423 net.cpp:90] Creating Layer pool1/3x3_s2
I1220 15:41:59.946105 12423 net.cpp:410] pool1/3x3_s2 <- conv1/7x7_s2
I1220 15:41:59.946110 12423 net.cpp:368] pool1/3x3_s2 -> pool1/3x3_s2
I1220 15:41:59.946117 12423 net.cpp:120] Setting up pool1/3x3_s2
I1220 15:41:59.946132 12423 net.cpp:127] Top shape: 10 64 56 56 (2007040)
I1220 15:41:59.946137 12423 layer_factory.hpp:74] Creating layer pool1/norm1
I1220 15:41:59.946144 12423 net.cpp:90] Creating Layer pool1/norm1
I1220 15:41:59.946148 12423 net.cpp:410] pool1/norm1 <- pool1/3x3_s2
I1220 15:41:59.946152 12423 net.cpp:368] pool1/norm1 -> pool1/norm1
I1220 15:41:59.946158 12423 net.cpp:120] Setting up pool1/norm1
I1220 15:41:59.946166 12423 net.cpp:127] Top shape: 10 64 56 56 (2007040)
I1220 15:41:59.946169 12423 layer_factory.hpp:74] Creating layer conv2/3x3_reduce
I1220 15:41:59.946176 12423 net.cpp:90] Creating Layer conv2/3x3_reduce
I1220 15:41:59.946179 12423 net.cpp:410] conv2/3x3_reduce <- pool1/norm1
I1220 15:41:59.946184 12423 net.cpp:368] conv2/3x3_reduce -> conv2/3x3_reduce
I1220 15:41:59.946190 12423 net.cpp:120] Setting up conv2/3x3_reduce
I1220 15:41:59.946228 12423 net.cpp:127] Top shape: 10 64 56 56 (2007040)
I1220 15:41:59.946234 12423 layer_factory.hpp:74] Creating layer conv2/relu_3x3_reduce_p
I1220 15:41:59.946239 12423 net.cpp:90] Creating Layer conv2/relu_3x3_reduce_p
I1220 15:41:59.946244 12423 net.cpp:410] conv2/relu_3x3_reduce_p <- conv2/3x3_reduce
I1220 15:41:59.946247 12423 net.cpp:357] conv2/relu_3x3_reduce_p -> conv2/3x3_reduce (in-place)
I1220 15:41:59.946252 12423 net.cpp:120] Setting up conv2/relu_3x3_reduce_p
I1220 15:41:59.946257 12423 net.cpp:127] Top shape: 10 64 56 56 (2007040)
I1220 15:41:59.946260 12423 layer_factory.hpp:74] Creating layer conv2/3x3
I1220 15:41:59.946267 12423 net.cpp:90] Creating Layer conv2/3x3
I1220 15:41:59.946270 12423 net.cpp:410] conv2/3x3 <- conv2/3x3_reduce
I1220 15:41:59.946276 12423 net.cpp:368] conv2/3x3 -> conv2/3x3
I1220 15:41:59.946281 12423 net.cpp:120] Setting up conv2/3x3
I1220 15:41:59.947037 12423 net.cpp:127] Top shape: 10 192 56 56 (6021120)
I1220 15:41:59.947046 12423 layer_factory.hpp:74] Creating layer conv2/relu_3x3_p
I1220 15:41:59.947051 12423 net.cpp:90] Creating Layer conv2/relu_3x3_p
I1220 15:41:59.947054 12423 net.cpp:410] conv2/relu_3x3_p <- conv2/3x3
I1220 15:41:59.947059 12423 net.cpp:357] conv2/relu_3x3_p -> conv2/3x3 (in-place)
I1220 15:41:59.947064 12423 net.cpp:120] Setting up conv2/relu_3x3_p
I1220 15:41:59.947068 12423 net.cpp:127] Top shape: 10 192 56 56 (6021120)
I1220 15:41:59.947072 12423 layer_factory.hpp:74] Creating layer conv2/norm2
I1220 15:41:59.947078 12423 net.cpp:90] Creating Layer conv2/norm2
I1220 15:41:59.947082 12423 net.cpp:410] conv2/norm2 <- conv2/3x3
I1220 15:41:59.947088 12423 net.cpp:368] conv2/norm2 -> conv2/norm2
I1220 15:41:59.947093 12423 net.cpp:120] Setting up conv2/norm2
I1220 15:41:59.947099 12423 net.cpp:127] Top shape: 10 192 56 56 (6021120)
I1220 15:41:59.947103 12423 layer_factory.hpp:74] Creating layer pool2/3x3_s2
I1220 15:41:59.947110 12423 net.cpp:90] Creating Layer pool2/3x3_s2
I1220 15:41:59.947125 12423 net.cpp:410] pool2/3x3_s2 <- conv2/norm2
I1220 15:41:59.947146 12423 net.cpp:368] pool2/3x3_s2 -> pool2/3x3_s2
I1220 15:41:59.947151 12423 net.cpp:120] Setting up pool2/3x3_s2
I1220 15:41:59.947157 12423 net.cpp:127] Top shape: 10 192 28 28 (1505280)
I1220 15:41:59.947161 12423 layer_factory.hpp:74] Creating layer pool2/3x3_s2_pool2/3x3_s2_0_split
I1220 15:41:59.947167 12423 net.cpp:90] Creating Layer pool2/3x3_s2_pool2/3x3_s2_0_split
I1220 15:41:59.947171 12423 net.cpp:410] pool2/3x3_s2_pool2/3x3_s2_0_split <- pool2/3x3_s2
I1220 15:41:59.947176 12423 net.cpp:368] pool2/3x3_s2_pool2/3x3_s2_0_split -> pool2/3x3_s2_pool2/3x3_s2_0_split_0
I1220 15:41:59.947181 12423 net.cpp:368] pool2/3x3_s2_pool2/3x3_s2_0_split -> pool2/3x3_s2_pool2/3x3_s2_0_split_1
I1220 15:41:59.947188 12423 net.cpp:368] pool2/3x3_s2_pool2/3x3_s2_0_split -> pool2/3x3_s2_pool2/3x3_s2_0_split_2
I1220 15:41:59.947195 12423 net.cpp:368] pool2/3x3_s2_pool2/3x3_s2_0_split -> pool2/3x3_s2_pool2/3x3_s2_0_split_3
I1220 15:41:59.947199 12423 net.cpp:120] Setting up pool2/3x3_s2_pool2/3x3_s2_0_split
I1220 15:41:59.947204 12423 net.cpp:127] Top shape: 10 192 28 28 (1505280)
I1220 15:41:59.947209 12423 net.cpp:127] Top shape: 10 192 28 28 (1505280)
I1220 15:41:59.947213 12423 net.cpp:127] Top shape: 10 192 28 28 (1505280)
I1220 15:41:59.947217 12423 net.cpp:127] Top shape: 10 192 28 28 (1505280)
I1220 15:41:59.947221 12423 layer_factory.hpp:74] Creating layer inception_3a/1x1
I1220 15:41:59.947227 12423 net.cpp:90] Creating Layer inception_3a/1x1
I1220 15:41:59.947230 12423 net.cpp:410] inception_3a/1x1 <- pool2/3x3_s2_pool2/3x3_s2_0_split_0
I1220 15:41:59.947237 12423 net.cpp:368] inception_3a/1x1 -> inception_3a/1x1
I1220 15:41:59.947243 12423 net.cpp:120] Setting up inception_3a/1x1
I1220 15:41:59.947335 12423 net.cpp:127] Top shape: 10 64 28 28 (501760)
I1220 15:41:59.947341 12423 layer_factory.hpp:74] Creating layer inception_3a/relu_1x1_p
I1220 15:41:59.947346 12423 net.cpp:90] Creating Layer inception_3a/relu_1x1_p
I1220 15:41:59.947350 12423 net.cpp:410] inception_3a/relu_1x1_p <- inception_3a/1x1
I1220 15:41:59.947355 12423 net.cpp:357] inception_3a/relu_1x1_p -> inception_3a/1x1 (in-place)
I1220 15:41:59.947360 12423 net.cpp:120] Setting up inception_3a/relu_1x1_p
I1220 15:41:59.947365 12423 net.cpp:127] Top shape: 10 64 28 28 (501760)
I1220 15:41:59.947367 12423 layer_factory.hpp:74] Creating layer inception_3a/3x3_reduce
I1220 15:41:59.947374 12423 net.cpp:90] Creating Layer inception_3a/3x3_reduce
I1220 15:41:59.947378 12423 net.cpp:410] inception_3a/3x3_reduce <- pool2/3x3_s2_pool2/3x3_s2_0_split_1
I1220 15:41:59.947383 12423 net.cpp:368] inception_3a/3x3_reduce -> inception_3a/3x3_reduce
I1220 15:41:59.947389 12423 net.cpp:120] Setting up inception_3a/3x3_reduce
I1220 15:41:59.947526 12423 net.cpp:127] Top shape: 10 96 28 28 (752640)
I1220 15:41:59.947535 12423 layer_factory.hpp:74] Creating layer inception_3a/relu_3x3_reduce_p
I1220 15:41:59.947541 12423 net.cpp:90] Creating Layer inception_3a/relu_3x3_reduce_p
I1220 15:41:59.947546 12423 net.cpp:410] inception_3a/relu_3x3_reduce_p <- inception_3a/3x3_reduce
I1220 15:41:59.947551 12423 net.cpp:357] inception_3a/relu_3x3_reduce_p -> inception_3a/3x3_reduce (in-place)
I1220 15:41:59.947556 12423 net.cpp:120] Setting up inception_3a/relu_3x3_reduce_p
I1220 15:41:59.947561 12423 net.cpp:127] Top shape: 10 96 28 28 (752640)
I1220 15:41:59.947564 12423 layer_factory.hpp:74] Creating layer inception_3a/3x3
I1220 15:41:59.947571 12423 net.cpp:90] Creating Layer inception_3a/3x3
I1220 15:41:59.947576 12423 net.cpp:410] inception_3a/3x3 <- inception_3a/3x3_reduce
I1220 15:41:59.947582 12423 net.cpp:368] inception_3a/3x3 -> inception_3a/3x3
I1220 15:41:59.947588 12423 net.cpp:120] Setting up inception_3a/3x3
I1220 15:41:59.948580 12423 net.cpp:127] Top shape: 10 128 28 28 (1003520)
I1220 15:41:59.948592 12423 layer_factory.hpp:74] Creating layer inception_3a/relu_3x3_p
I1220 15:41:59.948598 12423 net.cpp:90] Creating Layer inception_3a/relu_3x3_p
I1220 15:41:59.948606 12423 net.cpp:410] inception_3a/relu_3x3_p <- inception_3a/3x3
I1220 15:41:59.948618 12423 net.cpp:357] inception_3a/relu_3x3_p -> inception_3a/3x3 (in-place)
I1220 15:41:59.948624 12423 net.cpp:120] Setting up inception_3a/relu_3x3_p
I1220 15:41:59.948629 12423 net.cpp:127] Top shape: 10 128 28 28 (1003520)
I1220 15:41:59.948632 12423 layer_factory.hpp:74] Creating layer inception_3a/5x5_reduce
I1220 15:41:59.948640 12423 net.cpp:90] Creating Layer inception_3a/5x5_reduce
I1220 15:41:59.948644 12423 net.cpp:410] inception_3a/5x5_reduce <- pool2/3x3_s2_pool2/3x3_s2_0_split_2
I1220 15:41:59.948652 12423 net.cpp:368] inception_3a/5x5_reduce -> inception_3a/5x5_reduce
I1220 15:41:59.948657 12423 net.cpp:120] Setting up inception_3a/5x5_reduce
I1220 15:41:59.948690 12423 net.cpp:127] Top shape: 10 16 28 28 (125440)
I1220 15:41:59.948696 12423 layer_factory.hpp:74] Creating layer inception_3a/relu_5x5_reduce_p
I1220 15:41:59.948701 12423 net.cpp:90] Creating Layer inception_3a/relu_5x5_reduce_p
I1220 15:41:59.948705 12423 net.cpp:410] inception_3a/relu_5x5_reduce_p <- inception_3a/5x5_reduce
I1220 15:41:59.948710 12423 net.cpp:357] inception_3a/relu_5x5_reduce_p -> inception_3a/5x5_reduce (in-place)
I1220 15:41:59.948715 12423 net.cpp:120] Setting up inception_3a/relu_5x5_reduce_p
I1220 15:41:59.948719 12423 net.cpp:127] Top shape: 10 16 28 28 (125440)
I1220 15:41:59.948724 12423 layer_factory.hpp:74] Creating layer inception_3a/5x5
I1220 15:41:59.948730 12423 net.cpp:90] Creating Layer inception_3a/5x5
I1220 15:41:59.948734 12423 net.cpp:410] inception_3a/5x5 <- inception_3a/5x5_reduce
I1220 15:41:59.948740 12423 net.cpp:368] inception_3a/5x5 -> inception_3a/5x5
I1220 15:41:59.948745 12423 net.cpp:120] Setting up inception_3a/5x5
I1220 15:41:59.948837 12423 net.cpp:127] Top shape: 10 32 28 28 (250880)
I1220 15:41:59.948844 12423 layer_factory.hpp:74] Creating layer inception_3a/relu_5x5_p
I1220 15:41:59.948850 12423 net.cpp:90] Creating Layer inception_3a/relu_5x5_p
I1220 15:41:59.948854 12423 net.cpp:410] inception_3a/relu_5x5_p <- inception_3a/5x5
I1220 15:41:59.948859 12423 net.cpp:357] inception_3a/relu_5x5_p -> inception_3a/5x5 (in-place)
I1220 15:41:59.948864 12423 net.cpp:120] Setting up inception_3a/relu_5x5_p
I1220 15:41:59.948869 12423 net.cpp:127] Top shape: 10 32 28 28 (250880)
I1220 15:41:59.948873 12423 layer_factory.hpp:74] Creating layer inception_3a/pool
I1220 15:41:59.948880 12423 net.cpp:90] Creating Layer inception_3a/pool
I1220 15:41:59.948884 12423 net.cpp:410] inception_3a/pool <- pool2/3x3_s2_pool2/3x3_s2_0_split_3
I1220 15:41:59.948889 12423 net.cpp:368] inception_3a/pool -> inception_3a/pool
I1220 15:41:59.948895 12423 net.cpp:120] Setting up inception_3a/pool
I1220 15:41:59.948904 12423 net.cpp:127] Top shape: 10 192 28 28 (1505280)
I1220 15:41:59.948907 12423 layer_factory.hpp:74] Creating layer inception_3a/pool_proj
I1220 15:41:59.948914 12423 net.cpp:90] Creating Layer inception_3a/pool_proj
I1220 15:41:59.948917 12423 net.cpp:410] inception_3a/pool_proj <- inception_3a/pool
I1220 15:41:59.948923 12423 net.cpp:368] inception_3a/pool_proj -> inception_3a/pool_proj
I1220 15:41:59.948928 12423 net.cpp:120] Setting up inception_3a/pool_proj
I1220 15:41:59.948992 12423 net.cpp:127] Top shape: 10 32 28 28 (250880)
I1220 15:41:59.949002 12423 layer_factory.hpp:74] Creating layer inception_3a/relu_pool_proj_p
I1220 15:41:59.949015 12423 net.cpp:90] Creating Layer inception_3a/relu_pool_proj_p
I1220 15:41:59.949019 12423 net.cpp:410] inception_3a/relu_pool_proj_p <- inception_3a/pool_proj
I1220 15:41:59.949024 12423 net.cpp:357] inception_3a/relu_pool_proj_p -> inception_3a/pool_proj (in-place)
I1220 15:41:59.949029 12423 net.cpp:120] Setting up inception_3a/relu_pool_proj_p
I1220 15:41:59.949034 12423 net.cpp:127] Top shape: 10 32 28 28 (250880)
I1220 15:41:59.949038 12423 layer_factory.hpp:74] Creating layer inception_3a/output
I1220 15:41:59.949043 12423 net.cpp:90] Creating Layer inception_3a/output
I1220 15:41:59.949046 12423 net.cpp:410] inception_3a/output <- inception_3a/1x1
I1220 15:41:59.949054 12423 net.cpp:410] inception_3a/output <- inception_3a/3x3
I1220 15:41:59.949062 12423 net.cpp:410] inception_3a/output <- inception_3a/5x5
I1220 15:41:59.949067 12423 net.cpp:410] inception_3a/output <- inception_3a/pool_proj
I1220 15:41:59.949074 12423 net.cpp:368] inception_3a/output -> inception_3a/output
I1220 15:41:59.949080 12423 net.cpp:120] Setting up inception_3a/output
I1220 15:41:59.949092 12423 net.cpp:127] Top shape: 10 256 28 28 (2007040)
I1220 15:41:59.949096 12423 layer_factory.hpp:74] Creating layer inception_3a/output_inception_3a/output_0_split
I1220 15:41:59.949102 12423 net.cpp:90] Creating Layer inception_3a/output_inception_3a/output_0_split
I1220 15:41:59.949105 12423 net.cpp:410] inception_3a/output_inception_3a/output_0_split <- inception_3a/output
I1220 15:41:59.949111 12423 net.cpp:368] inception_3a/output_inception_3a/output_0_split -> inception_3a/output_inception_3a/output_0_split_0
I1220 15:41:59.949117 12423 net.cpp:368] inception_3a/output_inception_3a/output_0_split -> inception_3a/output_inception_3a/output_0_split_1
I1220 15:41:59.949123 12423 net.cpp:368] inception_3a/output_inception_3a/output_0_split -> inception_3a/output_inception_3a/output_0_split_2
I1220 15:41:59.949129 12423 net.cpp:368] inception_3a/output_inception_3a/output_0_split -> inception_3a/output_inception_3a/output_0_split_3
I1220 15:41:59.949134 12423 net.cpp:120] Setting up inception_3a/output_inception_3a/output_0_split
I1220 15:41:59.949141 12423 net.cpp:127] Top shape: 10 256 28 28 (2007040)
I1220 15:41:59.949146 12423 net.cpp:127] Top shape: 10 256 28 28 (2007040)
I1220 15:41:59.949149 12423 net.cpp:127] Top shape: 10 256 28 28 (2007040)
I1220 15:41:59.949153 12423 net.cpp:127] Top shape: 10 256 28 28 (2007040)
I1220 15:41:59.949157 12423 layer_factory.hpp:74] Creating layer inception_3b/1x1
I1220 15:41:59.949163 12423 net.cpp:90] Creating Layer inception_3b/1x1
I1220 15:41:59.949167 12423 net.cpp:410] inception_3b/1x1 <- inception_3a/output_inception_3a/output_0_split_0
I1220 15:41:59.949174 12423 net.cpp:368] inception_3b/1x1 -> inception_3b/1x1
I1220 15:41:59.949180 12423 net.cpp:120] Setting up inception_3b/1x1
I1220 15:41:59.949409 12423 net.cpp:127] Top shape: 10 128 28 28 (1003520)
I1220 15:41:59.949417 12423 layer_factory.hpp:74] Creating layer inception_3b/relu_1x1_p
I1220 15:41:59.949422 12423 net.cpp:90] Creating Layer inception_3b/relu_1x1_p
I1220 15:41:59.949426 12423 net.cpp:410] inception_3b/relu_1x1_p <- inception_3b/1x1
I1220 15:41:59.949430 12423 net.cpp:357] inception_3b/relu_1x1_p -> inception_3b/1x1 (in-place)
I1220 15:41:59.949436 12423 net.cpp:120] Setting up inception_3b/relu_1x1_p
I1220 15:41:59.949440 12423 net.cpp:127] Top shape: 10 128 28 28 (1003520)
I1220 15:41:59.949445 12423 layer_factory.hpp:74] Creating layer inception_3b/3x3_reduce
I1220 15:41:59.949450 12423 net.cpp:90] Creating Layer inception_3b/3x3_reduce
I1220 15:41:59.949455 12423 net.cpp:410] inception_3b/3x3_reduce <- inception_3a/output_inception_3a/output_0_split_1
I1220 15:41:59.949461 12423 net.cpp:368] inception_3b/3x3_reduce -> inception_3b/3x3_reduce
I1220 15:41:59.949467 12423 net.cpp:120] Setting up inception_3b/3x3_reduce
I1220 15:41:59.950016 12423 net.cpp:127] Top shape: 10 128 28 28 (1003520)
I1220 15:41:59.950068 12423 layer_factory.hpp:74] Creating layer inception_3b/relu_3x3_reduce_p
I1220 15:41:59.950093 12423 net.cpp:90] Creating Layer inception_3b/relu_3x3_reduce_p
I1220 15:41:59.950363 12423 net.cpp:410] inception_3b/relu_3x3_reduce_p <- inception_3b/3x3_reduce
I1220 15:41:59.950412 12423 net.cpp:357] inception_3b/relu_3x3_reduce_p -> inception_3b/3x3_reduce (in-place)
I1220 15:41:59.950420 12423 net.cpp:120] Setting up inception_3b/relu_3x3_reduce_p
I1220 15:41:59.950428 12423 net.cpp:127] Top shape: 10 128 28 28 (1003520)
I1220 15:41:59.950433 12423 layer_factory.hpp:74] Creating layer inception_3b/3x3
I1220 15:41:59.950448 12423 net.cpp:90] Creating Layer inception_3b/3x3
I1220 15:41:59.950453 12423 net.cpp:410] inception_3b/3x3 <- inception_3b/3x3_reduce
I1220 15:41:59.950459 12423 net.cpp:368] inception_3b/3x3 -> inception_3b/3x3
I1220 15:41:59.950470 12423 net.cpp:120] Setting up inception_3b/3x3
I1220 15:41:59.952152 12423 net.cpp:127] Top shape: 10 192 28 28 (1505280)
I1220 15:41:59.952172 12423 layer_factory.hpp:74] Creating layer inception_3b/relu_3x3_p
I1220 15:41:59.952180 12423 net.cpp:90] Creating Layer inception_3b/relu_3x3_p
I1220 15:41:59.952186 12423 net.cpp:410] inception_3b/relu_3x3_p <- inception_3b/3x3
I1220 15:41:59.952193 12423 net.cpp:357] inception_3b/relu_3x3_p -> inception_3b/3x3 (in-place)
I1220 15:41:59.952201 12423 net.cpp:120] Setting up inception_3b/relu_3x3_p
I1220 15:41:59.952206 12423 net.cpp:127] Top shape: 10 192 28 28 (1505280)
I1220 15:41:59.952209 12423 layer_factory.hpp:74] Creating layer inception_3b/5x5_reduce
I1220 15:41:59.952217 12423 net.cpp:90] Creating Layer inception_3b/5x5_reduce
I1220 15:41:59.952222 12423 net.cpp:410] inception_3b/5x5_reduce <- inception_3a/output_inception_3a/output_0_split_2
I1220 15:41:59.952239 12423 net.cpp:368] inception_3b/5x5_reduce -> inception_3b/5x5_reduce
I1220 15:41:59.952245 12423 net.cpp:120] Setting up inception_3b/5x5_reduce
I1220 15:41:59.952319 12423 net.cpp:127] Top shape: 10 32 28 28 (250880)
I1220 15:41:59.952325 12423 layer_factory.hpp:74] Creating layer inception_3b/relu_5x5_reduce_p
I1220 15:41:59.952330 12423 net.cpp:90] Creating Layer inception_3b/relu_5x5_reduce_p
I1220 15:41:59.952334 12423 net.cpp:410] inception_3b/relu_5x5_reduce_p <- inception_3b/5x5_reduce
I1220 15:41:59.952340 12423 net.cpp:357] inception_3b/relu_5x5_reduce_p -> inception_3b/5x5_reduce (in-place)
I1220 15:41:59.952347 12423 net.cpp:120] Setting up inception_3b/relu_5x5_reduce_p
I1220 15:41:59.952350 12423 net.cpp:127] Top shape: 10 32 28 28 (250880)
I1220 15:41:59.952354 12423 layer_factory.hpp:74] Creating layer inception_3b/5x5
I1220 15:41:59.952359 12423 net.cpp:90] Creating Layer inception_3b/5x5
I1220 15:41:59.952364 12423 net.cpp:410] inception_3b/5x5 <- inception_3b/5x5_reduce
I1220 15:41:59.952370 12423 net.cpp:368] inception_3b/5x5 -> inception_3b/5x5
I1220 15:41:59.952378 12423 net.cpp:120] Setting up inception_3b/5x5
I1220 15:41:59.952958 12423 net.cpp:127] Top shape: 10 96 28 28 (752640)
I1220 15:41:59.952967 12423 layer_factory.hpp:74] Creating layer inception_3b/relu_5x5_p
I1220 15:41:59.952973 12423 net.cpp:90] Creating Layer inception_3b/relu_5x5_p
I1220 15:41:59.952977 12423 net.cpp:410] inception_3b/relu_5x5_p <- inception_3b/5x5
I1220 15:41:59.952982 12423 net.cpp:357] inception_3b/relu_5x5_p -> inception_3b/5x5 (in-place)
I1220 15:41:59.952988 12423 net.cpp:120] Setting up inception_3b/relu_5x5_p
I1220 15:41:59.952993 12423 net.cpp:127] Top shape: 10 96 28 28 (752640)
I1220 15:41:59.952996 12423 layer_factory.hpp:74] Creating layer inception_3b/pool
I1220 15:41:59.953003 12423 net.cpp:90] Creating Layer inception_3b/pool
I1220 15:41:59.953008 12423 net.cpp:410] inception_3b/pool <- inception_3a/output_inception_3a/output_0_split_3
I1220 15:41:59.953013 12423 net.cpp:368] inception_3b/pool -> inception_3b/pool
I1220 15:41:59.953019 12423 net.cpp:120] Setting up inception_3b/pool
I1220 15:41:59.953027 12423 net.cpp:127] Top shape: 10 256 28 28 (2007040)
I1220 15:41:59.953030 12423 layer_factory.hpp:74] Creating layer inception_3b/pool_proj
I1220 15:41:59.953038 12423 net.cpp:90] Creating Layer inception_3b/pool_proj
I1220 15:41:59.953042 12423 net.cpp:410] inception_3b/pool_proj <- inception_3b/pool
I1220 15:41:59.953064 12423 net.cpp:368] inception_3b/pool_proj -> inception_3b/pool_proj
I1220 15:41:59.953074 12423 net.cpp:120] Setting up inception_3b/pool_proj
I1220 15:41:59.953497 12423 net.cpp:127] Top shape: 10 64 28 28 (501760)
I1220 15:41:59.953521 12423 layer_factory.hpp:74] Creating layer inception_3b/relu_pool_proj_p
I1220 15:41:59.953528 12423 net.cpp:90] Creating Layer inception_3b/relu_pool_proj_p
I1220 15:41:59.953536 12423 net.cpp:410] inception_3b/relu_pool_proj_p <- inception_3b/pool_proj
I1220 15:41:59.953541 12423 net.cpp:357] inception_3b/relu_pool_proj_p -> inception_3b/pool_proj (in-place)
I1220 15:41:59.953557 12423 net.cpp:120] Setting up inception_3b/relu_pool_proj_p
I1220 15:41:59.953577 12423 net.cpp:127] Top shape: 10 64 28 28 (501760)
I1220 15:41:59.953593 12423 layer_factory.hpp:74] Creating layer inception_3b/output
I1220 15:41:59.953613 12423 net.cpp:90] Creating Layer inception_3b/output
I1220 15:41:59.953886 12423 net.cpp:410] inception_3b/output <- inception_3b/1x1
I1220 15:41:59.953908 12423 net.cpp:410] inception_3b/output <- inception_3b/3x3
I1220 15:41:59.953914 12423 net.cpp:410] inception_3b/output <- inception_3b/5x5
I1220 15:41:59.953919 12423 net.cpp:410] inception_3b/output <- inception_3b/pool_proj
I1220 15:41:59.953929 12423 net.cpp:368] inception_3b/output -> inception_3b/output
I1220 15:41:59.953938 12423 net.cpp:120] Setting up inception_3b/output
I1220 15:41:59.953948 12423 net.cpp:127] Top shape: 10 480 28 28 (3763200)
I1220 15:41:59.953951 12423 layer_factory.hpp:74] Creating layer pool3/3x3_s2
I1220 15:41:59.953958 12423 net.cpp:90] Creating Layer pool3/3x3_s2
I1220 15:41:59.953963 12423 net.cpp:410] pool3/3x3_s2 <- inception_3b/output
I1220 15:41:59.953969 12423 net.cpp:368] pool3/3x3_s2 -> pool3/3x3_s2
I1220 15:41:59.953976 12423 net.cpp:120] Setting up pool3/3x3_s2
I1220 15:41:59.953984 12423 net.cpp:127] Top shape: 10 480 14 14 (940800)
I1220 15:41:59.953987 12423 layer_factory.hpp:74] Creating layer pool3/3x3_s2_pool3/3x3_s2_0_split
I1220 15:41:59.953994 12423 net.cpp:90] Creating Layer pool3/3x3_s2_pool3/3x3_s2_0_split
I1220 15:41:59.953997 12423 net.cpp:410] pool3/3x3_s2_pool3/3x3_s2_0_split <- pool3/3x3_s2
I1220 15:41:59.954005 12423 net.cpp:368] pool3/3x3_s2_pool3/3x3_s2_0_split -> pool3/3x3_s2_pool3/3x3_s2_0_split_0
I1220 15:41:59.954011 12423 net.cpp:368] pool3/3x3_s2_pool3/3x3_s2_0_split -> pool3/3x3_s2_pool3/3x3_s2_0_split_1
I1220 15:41:59.954017 12423 net.cpp:368] pool3/3x3_s2_pool3/3x3_s2_0_split -> pool3/3x3_s2_pool3/3x3_s2_0_split_2
I1220 15:41:59.954023 12423 net.cpp:368] pool3/3x3_s2_pool3/3x3_s2_0_split -> pool3/3x3_s2_pool3/3x3_s2_0_split_3
I1220 15:41:59.954028 12423 net.cpp:120] Setting up pool3/3x3_s2_pool3/3x3_s2_0_split
I1220 15:41:59.954035 12423 net.cpp:127] Top shape: 10 480 14 14 (940800)
I1220 15:41:59.954040 12423 net.cpp:127] Top shape: 10 480 14 14 (940800)
I1220 15:41:59.954044 12423 net.cpp:127] Top shape: 10 480 14 14 (940800)
I1220 15:41:59.954048 12423 net.cpp:127] Top shape: 10 480 14 14 (940800)
I1220 15:41:59.954053 12423 layer_factory.hpp:74] Creating layer inception_4a/1x1
I1220 15:41:59.954066 12423 net.cpp:90] Creating Layer inception_4a/1x1
I1220 15:41:59.954076 12423 net.cpp:410] inception_4a/1x1 <- pool3/3x3_s2_pool3/3x3_s2_0_split_0
I1220 15:41:59.954094 12423 net.cpp:368] inception_4a/1x1 -> inception_4a/1x1
I1220 15:41:59.954119 12423 net.cpp:120] Setting up inception_4a/1x1
I1220 15:41:59.954895 12423 net.cpp:127] Top shape: 10 192 14 14 (376320)
I1220 15:41:59.954905 12423 layer_factory.hpp:74] Creating layer inception_4a/relu_1x1_p
I1220 15:41:59.954912 12423 net.cpp:90] Creating Layer inception_4a/relu_1x1_p
I1220 15:41:59.954916 12423 net.cpp:410] inception_4a/relu_1x1_p <- inception_4a/1x1
I1220 15:41:59.954922 12423 net.cpp:357] inception_4a/relu_1x1_p -> inception_4a/1x1 (in-place)
I1220 15:41:59.954928 12423 net.cpp:120] Setting up inception_4a/relu_1x1_p
I1220 15:41:59.954933 12423 net.cpp:127] Top shape: 10 192 14 14 (376320)
I1220 15:41:59.954936 12423 layer_factory.hpp:74] Creating layer inception_4a/3x3_reduce
I1220 15:41:59.954946 12423 net.cpp:90] Creating Layer inception_4a/3x3_reduce
I1220 15:41:59.954951 12423 net.cpp:410] inception_4a/3x3_reduce <- pool3/3x3_s2_pool3/3x3_s2_0_split_1
I1220 15:41:59.954957 12423 net.cpp:368] inception_4a/3x3_reduce -> inception_4a/3x3_reduce
I1220 15:41:59.954963 12423 net.cpp:120] Setting up inception_4a/3x3_reduce
I1220 15:41:59.955307 12423 net.cpp:127] Top shape: 10 96 14 14 (188160)
I1220 15:41:59.955319 12423 layer_factory.hpp:74] Creating layer inception_4a/relu_3x3_reduce_p
I1220 15:41:59.955327 12423 net.cpp:90] Creating Layer inception_4a/relu_3x3_reduce_p
I1220 15:41:59.955338 12423 net.cpp:410] inception_4a/relu_3x3_reduce_p <- inception_4a/3x3_reduce
I1220 15:41:59.955358 12423 net.cpp:357] inception_4a/relu_3x3_reduce_p -> inception_4a/3x3_reduce (in-place)
I1220 15:41:59.955365 12423 net.cpp:120] Setting up inception_4a/relu_3x3_reduce_p
I1220 15:41:59.955370 12423 net.cpp:127] Top shape: 10 96 14 14 (188160)
I1220 15:41:59.955374 12423 layer_factory.hpp:74] Creating layer inception_4a/3x3
I1220 15:41:59.955389 12423 net.cpp:90] Creating Layer inception_4a/3x3
I1220 15:41:59.955392 12423 net.cpp:410] inception_4a/3x3 <- inception_4a/3x3_reduce
I1220 15:41:59.955399 12423 net.cpp:368] inception_4a/3x3 -> inception_4a/3x3
I1220 15:41:59.955405 12423 net.cpp:120] Setting up inception_4a/3x3
I1220 15:41:59.956789 12423 net.cpp:127] Top shape: 10 208 14 14 (407680)
I1220 15:41:59.956804 12423 layer_factory.hpp:74] Creating layer inception_4a/relu_3x3_p
I1220 15:41:59.956809 12423 net.cpp:90] Creating Layer inception_4a/relu_3x3_p
I1220 15:41:59.956815 12423 net.cpp:410] inception_4a/relu_3x3_p <- inception_4a/3x3
I1220 15:41:59.957069 12423 net.cpp:357] inception_4a/relu_3x3_p -> inception_4a/3x3 (in-place)
I1220 15:41:59.957113 12423 net.cpp:120] Setting up inception_4a/relu_3x3_p
I1220 15:41:59.957120 12423 net.cpp:127] Top shape: 10 208 14 14 (407680)
I1220 15:41:59.957125 12423 layer_factory.hpp:74] Creating layer inception_4a/5x5_reduce
I1220 15:41:59.957134 12423 net.cpp:90] Creating Layer inception_4a/5x5_reduce
I1220 15:41:59.957139 12423 net.cpp:410] inception_4a/5x5_reduce <- pool3/3x3_s2_pool3/3x3_s2_0_split_2
I1220 15:41:59.957149 12423 net.cpp:368] inception_4a/5x5_reduce -> inception_4a/5x5_reduce
I1220 15:41:59.957156 12423 net.cpp:120] Setting up inception_4a/5x5_reduce
I1220 15:41:59.957226 12423 net.cpp:127] Top shape: 10 16 14 14 (31360)
I1220 15:41:59.957233 12423 layer_factory.hpp:74] Creating layer inception_4a/relu_5x5_reduce_p
I1220 15:41:59.957239 12423 net.cpp:90] Creating Layer inception_4a/relu_5x5_reduce_p
I1220 15:41:59.957244 12423 net.cpp:410] inception_4a/relu_5x5_reduce_p <- inception_4a/5x5_reduce
I1220 15:41:59.957250 12423 net.cpp:357] inception_4a/relu_5x5_reduce_p -> inception_4a/5x5_reduce (in-place)
I1220 15:41:59.957257 12423 net.cpp:120] Setting up inception_4a/relu_5x5_reduce_p
I1220 15:41:59.957264 12423 net.cpp:127] Top shape: 10 16 14 14 (31360)
I1220 15:41:59.957272 12423 layer_factory.hpp:74] Creating layer inception_4a/5x5
I1220 15:41:59.957288 12423 net.cpp:90] Creating Layer inception_4a/5x5
I1220 15:41:59.957307 12423 net.cpp:410] inception_4a/5x5 <- inception_4a/5x5_reduce
I1220 15:41:59.957319 12423 net.cpp:368] inception_4a/5x5 -> inception_4a/5x5
I1220 15:41:59.957327 12423 net.cpp:120] Setting up inception_4a/5x5
I1220 15:41:59.957476 12423 net.cpp:127] Top shape: 10 48 14 14 (94080)
I1220 15:41:59.957485 12423 layer_factory.hpp:74] Creating layer inception_4a/relu_5x5_p
I1220 15:41:59.957491 12423 net.cpp:90] Creating Layer inception_4a/relu_5x5_p
I1220 15:41:59.957495 12423 net.cpp:410] inception_4a/relu_5x5_p <- inception_4a/5x5
I1220 15:41:59.957500 12423 net.cpp:357] inception_4a/relu_5x5_p -> inception_4a/5x5 (in-place)
I1220 15:41:59.957506 12423 net.cpp:120] Setting up inception_4a/relu_5x5_p
I1220 15:41:59.957511 12423 net.cpp:127] Top shape: 10 48 14 14 (94080)
I1220 15:41:59.957515 12423 layer_factory.hpp:74] Creating layer inception_4a/pool
I1220 15:41:59.957520 12423 net.cpp:90] Creating Layer inception_4a/pool
I1220 15:41:59.957526 12423 net.cpp:410] inception_4a/pool <- pool3/3x3_s2_pool3/3x3_s2_0_split_3
I1220 15:41:59.957531 12423 net.cpp:368] inception_4a/pool -> inception_4a/pool
I1220 15:41:59.957537 12423 net.cpp:120] Setting up inception_4a/pool
I1220 15:41:59.957545 12423 net.cpp:127] Top shape: 10 480 14 14 (940800)
I1220 15:41:59.957550 12423 layer_factory.hpp:74] Creating layer inception_4a/pool_proj
I1220 15:41:59.957556 12423 net.cpp:90] Creating Layer inception_4a/pool_proj
I1220 15:41:59.957561 12423 net.cpp:410] inception_4a/pool_proj <- inception_4a/pool
I1220 15:41:59.957566 12423 net.cpp:368] inception_4a/pool_proj -> inception_4a/pool_proj
I1220 15:41:59.957581 12423 net.cpp:120] Setting up inception_4a/pool_proj
I1220 15:41:59.957825 12423 net.cpp:127] Top shape: 10 64 14 14 (125440)
I1220 15:41:59.957834 12423 layer_factory.hpp:74] Creating layer inception_4a/relu_pool_proj_p
I1220 15:41:59.957839 12423 net.cpp:90] Creating Layer inception_4a/relu_pool_proj_p
I1220 15:41:59.957844 12423 net.cpp:410] inception_4a/relu_pool_proj_p <- inception_4a/pool_proj
I1220 15:41:59.957849 12423 net.cpp:357] inception_4a/relu_pool_proj_p -> inception_4a/pool_proj (in-place)
I1220 15:41:59.957854 12423 net.cpp:120] Setting up inception_4a/relu_pool_proj_p
I1220 15:41:59.957859 12423 net.cpp:127] Top shape: 10 64 14 14 (125440)
I1220 15:41:59.957862 12423 layer_factory.hpp:74] Creating layer inception_4a/output
I1220 15:41:59.957869 12423 net.cpp:90] Creating Layer inception_4a/output
I1220 15:41:59.957872 12423 net.cpp:410] inception_4a/output <- inception_4a/1x1
I1220 15:41:59.957877 12423 net.cpp:410] inception_4a/output <- inception_4a/3x3
I1220 15:41:59.957882 12423 net.cpp:410] inception_4a/output <- inception_4a/5x5
I1220 15:41:59.957886 12423 net.cpp:410] inception_4a/output <- inception_4a/pool_proj
I1220 15:41:59.957891 12423 net.cpp:368] inception_4a/output -> inception_4a/output
I1220 15:41:59.957896 12423 net.cpp:120] Setting up inception_4a/output
I1220 15:41:59.957902 12423 net.cpp:127] Top shape: 10 512 14 14 (1003520)
I1220 15:41:59.957906 12423 layer_factory.hpp:74] Creating layer inception_4a/output_inception_4a/output_0_split
I1220 15:41:59.957912 12423 net.cpp:90] Creating Layer inception_4a/output_inception_4a/output_0_split
I1220 15:41:59.957916 12423 net.cpp:410] inception_4a/output_inception_4a/output_0_split <- inception_4a/output
I1220 15:41:59.957923 12423 net.cpp:368] inception_4a/output_inception_4a/output_0_split -> inception_4a/output_inception_4a/output_0_split_0
I1220 15:41:59.957931 12423 net.cpp:368] inception_4a/output_inception_4a/output_0_split -> inception_4a/output_inception_4a/output_0_split_1
I1220 15:41:59.957937 12423 net.cpp:368] inception_4a/output_inception_4a/output_0_split -> inception_4a/output_inception_4a/output_0_split_2
I1220 15:41:59.957942 12423 net.cpp:368] inception_4a/output_inception_4a/output_0_split -> inception_4a/output_inception_4a/output_0_split_3
I1220 15:41:59.957952 12423 net.cpp:368] inception_4a/output_inception_4a/output_0_split -> inception_4a/output_inception_4a/output_0_split_4
I1220 15:41:59.957957 12423 net.cpp:120] Setting up inception_4a/output_inception_4a/output_0_split
I1220 15:41:59.957963 12423 net.cpp:127] Top shape: 10 512 14 14 (1003520)
I1220 15:41:59.957978 12423 net.cpp:127] Top shape: 10 512 14 14 (1003520)
I1220 15:41:59.957981 12423 net.cpp:127] Top shape: 10 512 14 14 (1003520)
I1220 15:41:59.957985 12423 net.cpp:127] Top shape: 10 512 14 14 (1003520)
I1220 15:41:59.957990 12423 net.cpp:127] Top shape: 10 512 14 14 (1003520)
I1220 15:41:59.957993 12423 layer_factory.hpp:74] Creating layer loss1/ave_pool
I1220 15:41:59.957998 12423 net.cpp:90] Creating Layer loss1/ave_pool
I1220 15:41:59.958003 12423 net.cpp:410] loss1/ave_pool <- inception_4a/output_inception_4a/output_0_split_0
I1220 15:41:59.958019 12423 net.cpp:368] loss1/ave_pool -> loss1/ave_pool
I1220 15:41:59.958024 12423 net.cpp:120] Setting up loss1/ave_pool
I1220 15:41:59.958029 12423 net.cpp:127] Top shape: 10 512 4 4 (81920)
I1220 15:41:59.958032 12423 layer_factory.hpp:74] Creating layer loss1/conv
I1220 15:41:59.958039 12423 net.cpp:90] Creating Layer loss1/conv
I1220 15:41:59.958041 12423 net.cpp:410] loss1/conv <- loss1/ave_pool
I1220 15:41:59.958048 12423 net.cpp:368] loss1/conv -> loss1/conv
I1220 15:41:59.958053 12423 net.cpp:120] Setting up loss1/conv
I1220 15:41:59.958573 12423 net.cpp:127] Top shape: 10 128 4 4 (20480)
I1220 15:41:59.958582 12423 layer_factory.hpp:74] Creating layer loss1/relu_conv_p
I1220 15:41:59.958588 12423 net.cpp:90] Creating Layer loss1/relu_conv_p
I1220 15:41:59.958592 12423 net.cpp:410] loss1/relu_conv_p <- loss1/conv
I1220 15:41:59.958600 12423 net.cpp:357] loss1/relu_conv_p -> loss1/conv (in-place)
I1220 15:41:59.958609 12423 net.cpp:120] Setting up loss1/relu_conv_p
I1220 15:41:59.958614 12423 net.cpp:127] Top shape: 10 128 4 4 (20480)
I1220 15:41:59.958618 12423 layer_factory.hpp:74] Creating layer loss1/fc
I1220 15:41:59.958626 12423 net.cpp:90] Creating Layer loss1/fc
I1220 15:41:59.958631 12423 net.cpp:410] loss1/fc <- loss1/conv
I1220 15:41:59.958636 12423 net.cpp:368] loss1/fc -> loss1/fc
I1220 15:41:59.958642 12423 net.cpp:120] Setting up loss1/fc
I1220 15:41:59.974066 12423 net.cpp:127] Top shape: 10 1024 (10240)
I1220 15:41:59.974094 12423 layer_factory.hpp:74] Creating layer loss1/relu_fc_p
I1220 15:41:59.974104 12423 net.cpp:90] Creating Layer loss1/relu_fc_p
I1220 15:41:59.974112 12423 net.cpp:410] loss1/relu_fc_p <- loss1/fc
I1220 15:41:59.974118 12423 net.cpp:357] loss1/relu_fc_p -> loss1/fc (in-place)
I1220 15:41:59.974128 12423 net.cpp:120] Setting up loss1/relu_fc_p
I1220 15:41:59.974133 12423 net.cpp:127] Top shape: 10 1024 (10240)
I1220 15:41:59.974136 12423 layer_factory.hpp:74] Creating layer loss1/drop_fc
I1220 15:41:59.974150 12423 net.cpp:90] Creating Layer loss1/drop_fc
I1220 15:41:59.974154 12423 net.cpp:410] loss1/drop_fc <- loss1/fc
I1220 15:41:59.974160 12423 net.cpp:357] loss1/drop_fc -> loss1/fc (in-place)
I1220 15:41:59.974167 12423 net.cpp:120] Setting up loss1/drop_fc
I1220 15:41:59.974175 12423 net.cpp:127] Top shape: 10 1024 (10240)
I1220 15:41:59.974179 12423 layer_factory.hpp:74] Creating layer loss1/classifier_MIT
I1220 15:41:59.974186 12423 net.cpp:90] Creating Layer loss1/classifier_MIT
I1220 15:41:59.974190 12423 net.cpp:410] loss1/classifier_MIT <- loss1/fc
I1220 15:41:59.974196 12423 net.cpp:368] loss1/classifier_MIT -> loss1/classifier_MIT
I1220 15:41:59.974203 12423 net.cpp:120] Setting up loss1/classifier_MIT
I1220 15:41:59.974671 12423 net.cpp:127] Top shape: 10 67 (670)
I1220 15:41:59.974679 12423 layer_factory.hpp:74] Creating layer loss1/loss
I1220 15:41:59.974689 12423 net.cpp:90] Creating Layer loss1/loss
I1220 15:41:59.974692 12423 net.cpp:410] loss1/loss <- loss1/classifier_MIT
I1220 15:41:59.974697 12423 net.cpp:410] loss1/loss <- label_data_1_split_0
I1220 15:41:59.974704 12423 net.cpp:368] loss1/loss -> loss1/loss1
I1220 15:41:59.974709 12423 net.cpp:120] Setting up loss1/loss
I1220 15:41:59.974716 12423 layer_factory.hpp:74] Creating layer loss1/loss
I1220 15:41:59.974732 12423 net.cpp:127] Top shape: (1)
I1220 15:41:59.974737 12423 net.cpp:129]     with loss weight 0.3
I1220 15:41:59.974764 12423 layer_factory.hpp:74] Creating layer inception_4b/1x1
I1220 15:41:59.974771 12423 net.cpp:90] Creating Layer inception_4b/1x1
I1220 15:41:59.974776 12423 net.cpp:410] inception_4b/1x1 <- inception_4a/output_inception_4a/output_0_split_1
I1220 15:41:59.974783 12423 net.cpp:368] inception_4b/1x1 -> inception_4b/1x1
I1220 15:41:59.974791 12423 net.cpp:120] Setting up inception_4b/1x1
I1220 15:41:59.975354 12423 net.cpp:127] Top shape: 10 160 14 14 (313600)
I1220 15:41:59.975363 12423 layer_factory.hpp:74] Creating layer inception_4b/relu_1x1_p
I1220 15:41:59.975368 12423 net.cpp:90] Creating Layer inception_4b/relu_1x1_p
I1220 15:41:59.975371 12423 net.cpp:410] inception_4b/relu_1x1_p <- inception_4b/1x1
I1220 15:41:59.975378 12423 net.cpp:357] inception_4b/relu_1x1_p -> inception_4b/1x1 (in-place)
I1220 15:41:59.975383 12423 net.cpp:120] Setting up inception_4b/relu_1x1_p
I1220 15:41:59.975389 12423 net.cpp:127] Top shape: 10 160 14 14 (313600)
I1220 15:41:59.975391 12423 layer_factory.hpp:74] Creating layer inception_4b/3x3_reduce
I1220 15:41:59.975397 12423 net.cpp:90] Creating Layer inception_4b/3x3_reduce
I1220 15:41:59.975401 12423 net.cpp:410] inception_4b/3x3_reduce <- inception_4a/output_inception_4a/output_0_split_2
I1220 15:41:59.975409 12423 net.cpp:368] inception_4b/3x3_reduce -> inception_4b/3x3_reduce
I1220 15:41:59.975415 12423 net.cpp:120] Setting up inception_4b/3x3_reduce
I1220 15:41:59.975812 12423 net.cpp:127] Top shape: 10 112 14 14 (219520)
I1220 15:41:59.975821 12423 layer_factory.hpp:74] Creating layer inception_4b/relu_3x3_reduce_p
I1220 15:41:59.975832 12423 net.cpp:90] Creating Layer inception_4b/relu_3x3_reduce_p
I1220 15:41:59.975843 12423 net.cpp:410] inception_4b/relu_3x3_reduce_p <- inception_4b/3x3_reduce
I1220 15:41:59.975849 12423 net.cpp:357] inception_4b/relu_3x3_reduce_p -> inception_4b/3x3_reduce (in-place)
I1220 15:41:59.975854 12423 net.cpp:120] Setting up inception_4b/relu_3x3_reduce_p
I1220 15:41:59.975859 12423 net.cpp:127] Top shape: 10 112 14 14 (219520)
I1220 15:41:59.975863 12423 layer_factory.hpp:74] Creating layer inception_4b/3x3
I1220 15:41:59.975868 12423 net.cpp:90] Creating Layer inception_4b/3x3
I1220 15:41:59.975872 12423 net.cpp:410] inception_4b/3x3 <- inception_4b/3x3_reduce
I1220 15:41:59.975878 12423 net.cpp:368] inception_4b/3x3 -> inception_4b/3x3
I1220 15:41:59.975884 12423 net.cpp:120] Setting up inception_4b/3x3
I1220 15:41:59.977422 12423 net.cpp:127] Top shape: 10 224 14 14 (439040)
I1220 15:41:59.977432 12423 layer_factory.hpp:74] Creating layer inception_4b/relu_3x3_p
I1220 15:41:59.977437 12423 net.cpp:90] Creating Layer inception_4b/relu_3x3_p
I1220 15:41:59.977442 12423 net.cpp:410] inception_4b/relu_3x3_p <- inception_4b/3x3
I1220 15:41:59.977447 12423 net.cpp:357] inception_4b/relu_3x3_p -> inception_4b/3x3 (in-place)
I1220 15:41:59.977453 12423 net.cpp:120] Setting up inception_4b/relu_3x3_p
I1220 15:41:59.977458 12423 net.cpp:127] Top shape: 10 224 14 14 (439040)
I1220 15:41:59.977462 12423 layer_factory.hpp:74] Creating layer inception_4b/5x5_reduce
I1220 15:41:59.977466 12423 net.cpp:90] Creating Layer inception_4b/5x5_reduce
I1220 15:41:59.977470 12423 net.cpp:410] inception_4b/5x5_reduce <- inception_4a/output_inception_4a/output_0_split_3
I1220 15:41:59.977478 12423 net.cpp:368] inception_4b/5x5_reduce -> inception_4b/5x5_reduce
I1220 15:41:59.977484 12423 net.cpp:120] Setting up inception_4b/5x5_reduce
I1220 15:41:59.977573 12423 net.cpp:127] Top shape: 10 24 14 14 (47040)
I1220 15:41:59.977579 12423 layer_factory.hpp:74] Creating layer inception_4b/relu_5x5_reduce_p
I1220 15:41:59.977584 12423 net.cpp:90] Creating Layer inception_4b/relu_5x5_reduce_p
I1220 15:41:59.977588 12423 net.cpp:410] inception_4b/relu_5x5_reduce_p <- inception_4b/5x5_reduce
I1220 15:41:59.977593 12423 net.cpp:357] inception_4b/relu_5x5_reduce_p -> inception_4b/5x5_reduce (in-place)
I1220 15:41:59.977598 12423 net.cpp:120] Setting up inception_4b/relu_5x5_reduce_p
I1220 15:41:59.977602 12423 net.cpp:127] Top shape: 10 24 14 14 (47040)
I1220 15:41:59.977607 12423 layer_factory.hpp:74] Creating layer inception_4b/5x5
I1220 15:41:59.977612 12423 net.cpp:90] Creating Layer inception_4b/5x5
I1220 15:41:59.977617 12423 net.cpp:410] inception_4b/5x5 <- inception_4b/5x5_reduce
I1220 15:41:59.977623 12423 net.cpp:368] inception_4b/5x5 -> inception_4b/5x5
I1220 15:41:59.977628 12423 net.cpp:120] Setting up inception_4b/5x5
I1220 15:41:59.977900 12423 net.cpp:127] Top shape: 10 64 14 14 (125440)
I1220 15:41:59.977906 12423 layer_factory.hpp:74] Creating layer inception_4b/relu_5x5_p
I1220 15:41:59.977911 12423 net.cpp:90] Creating Layer inception_4b/relu_5x5_p
I1220 15:41:59.977916 12423 net.cpp:410] inception_4b/relu_5x5_p <- inception_4b/5x5
I1220 15:41:59.977921 12423 net.cpp:357] inception_4b/relu_5x5_p -> inception_4b/5x5 (in-place)
I1220 15:41:59.977926 12423 net.cpp:120] Setting up inception_4b/relu_5x5_p
I1220 15:41:59.977929 12423 net.cpp:127] Top shape: 10 64 14 14 (125440)
I1220 15:41:59.977933 12423 layer_factory.hpp:74] Creating layer inception_4b/pool
I1220 15:41:59.977938 12423 net.cpp:90] Creating Layer inception_4b/pool
I1220 15:41:59.977943 12423 net.cpp:410] inception_4b/pool <- inception_4a/output_inception_4a/output_0_split_4
I1220 15:41:59.977949 12423 net.cpp:368] inception_4b/pool -> inception_4b/pool
I1220 15:41:59.977960 12423 net.cpp:120] Setting up inception_4b/pool
I1220 15:41:59.977969 12423 net.cpp:127] Top shape: 10 512 14 14 (1003520)
I1220 15:41:59.977972 12423 layer_factory.hpp:74] Creating layer inception_4b/pool_proj
I1220 15:41:59.977982 12423 net.cpp:90] Creating Layer inception_4b/pool_proj
I1220 15:41:59.977989 12423 net.cpp:410] inception_4b/pool_proj <- inception_4b/pool
I1220 15:41:59.977996 12423 net.cpp:368] inception_4b/pool_proj -> inception_4b/pool_proj
I1220 15:41:59.978003 12423 net.cpp:120] Setting up inception_4b/pool_proj
I1220 15:41:59.978234 12423 net.cpp:127] Top shape: 10 64 14 14 (125440)
I1220 15:41:59.978240 12423 layer_factory.hpp:74] Creating layer inception_4b/relu_pool_proj_p
I1220 15:41:59.978245 12423 net.cpp:90] Creating Layer inception_4b/relu_pool_proj_p
I1220 15:41:59.978250 12423 net.cpp:410] inception_4b/relu_pool_proj_p <- inception_4b/pool_proj
I1220 15:41:59.978255 12423 net.cpp:357] inception_4b/relu_pool_proj_p -> inception_4b/pool_proj (in-place)
I1220 15:41:59.978260 12423 net.cpp:120] Setting up inception_4b/relu_pool_proj_p
I1220 15:41:59.978266 12423 net.cpp:127] Top shape: 10 64 14 14 (125440)
I1220 15:41:59.978268 12423 layer_factory.hpp:74] Creating layer inception_4b/output
I1220 15:41:59.978274 12423 net.cpp:90] Creating Layer inception_4b/output
I1220 15:41:59.978277 12423 net.cpp:410] inception_4b/output <- inception_4b/1x1
I1220 15:41:59.978282 12423 net.cpp:410] inception_4b/output <- inception_4b/3x3
I1220 15:41:59.978286 12423 net.cpp:410] inception_4b/output <- inception_4b/5x5
I1220 15:41:59.978291 12423 net.cpp:410] inception_4b/output <- inception_4b/pool_proj
I1220 15:41:59.978296 12423 net.cpp:368] inception_4b/output -> inception_4b/output
I1220 15:41:59.978302 12423 net.cpp:120] Setting up inception_4b/output
I1220 15:41:59.978307 12423 net.cpp:127] Top shape: 10 512 14 14 (1003520)
I1220 15:41:59.978312 12423 layer_factory.hpp:74] Creating layer inception_4b/output_inception_4b/output_0_split
I1220 15:41:59.978319 12423 net.cpp:90] Creating Layer inception_4b/output_inception_4b/output_0_split
I1220 15:41:59.978323 12423 net.cpp:410] inception_4b/output_inception_4b/output_0_split <- inception_4b/output
I1220 15:41:59.978328 12423 net.cpp:368] inception_4b/output_inception_4b/output_0_split -> inception_4b/output_inception_4b/output_0_split_0
I1220 15:41:59.978334 12423 net.cpp:368] inception_4b/output_inception_4b/output_0_split -> inception_4b/output_inception_4b/output_0_split_1
I1220 15:41:59.978340 12423 net.cpp:368] inception_4b/output_inception_4b/output_0_split -> inception_4b/output_inception_4b/output_0_split_2
I1220 15:41:59.978346 12423 net.cpp:368] inception_4b/output_inception_4b/output_0_split -> inception_4b/output_inception_4b/output_0_split_3
I1220 15:41:59.978351 12423 net.cpp:120] Setting up inception_4b/output_inception_4b/output_0_split
I1220 15:41:59.978358 12423 net.cpp:127] Top shape: 10 512 14 14 (1003520)
I1220 15:41:59.978363 12423 net.cpp:127] Top shape: 10 512 14 14 (1003520)
I1220 15:41:59.978366 12423 net.cpp:127] Top shape: 10 512 14 14 (1003520)
I1220 15:41:59.978370 12423 net.cpp:127] Top shape: 10 512 14 14 (1003520)
I1220 15:41:59.978374 12423 layer_factory.hpp:74] Creating layer inception_4c/1x1
I1220 15:41:59.978380 12423 net.cpp:90] Creating Layer inception_4c/1x1
I1220 15:41:59.978384 12423 net.cpp:410] inception_4c/1x1 <- inception_4b/output_inception_4b/output_0_split_0
I1220 15:41:59.978390 12423 net.cpp:368] inception_4c/1x1 -> inception_4c/1x1
I1220 15:41:59.978396 12423 net.cpp:120] Setting up inception_4c/1x1
I1220 15:41:59.978844 12423 net.cpp:127] Top shape: 10 128 14 14 (250880)
I1220 15:41:59.978852 12423 layer_factory.hpp:74] Creating layer inception_4c/relu_1x1_p
I1220 15:41:59.978857 12423 net.cpp:90] Creating Layer inception_4c/relu_1x1_p
I1220 15:41:59.978860 12423 net.cpp:410] inception_4c/relu_1x1_p <- inception_4c/1x1
I1220 15:41:59.978866 12423 net.cpp:357] inception_4c/relu_1x1_p -> inception_4c/1x1 (in-place)
I1220 15:41:59.978871 12423 net.cpp:120] Setting up inception_4c/relu_1x1_p
I1220 15:41:59.978876 12423 net.cpp:127] Top shape: 10 128 14 14 (250880)
I1220 15:41:59.978880 12423 layer_factory.hpp:74] Creating layer inception_4c/3x3_reduce
I1220 15:41:59.978885 12423 net.cpp:90] Creating Layer inception_4c/3x3_reduce
I1220 15:41:59.978893 12423 net.cpp:410] inception_4c/3x3_reduce <- inception_4b/output_inception_4b/output_0_split_1
I1220 15:41:59.978902 12423 net.cpp:368] inception_4c/3x3_reduce -> inception_4c/3x3_reduce
I1220 15:41:59.978909 12423 net.cpp:120] Setting up inception_4c/3x3_reduce
I1220 15:41:59.979353 12423 net.cpp:127] Top shape: 10 128 14 14 (250880)
I1220 15:41:59.979360 12423 layer_factory.hpp:74] Creating layer inception_4c/relu_3x3_reduce_p
I1220 15:41:59.979365 12423 net.cpp:90] Creating Layer inception_4c/relu_3x3_reduce_p
I1220 15:41:59.979369 12423 net.cpp:410] inception_4c/relu_3x3_reduce_p <- inception_4c/3x3_reduce
I1220 15:41:59.979375 12423 net.cpp:357] inception_4c/relu_3x3_reduce_p -> inception_4c/3x3_reduce (in-place)
I1220 15:41:59.979380 12423 net.cpp:120] Setting up inception_4c/relu_3x3_reduce_p
I1220 15:41:59.979385 12423 net.cpp:127] Top shape: 10 128 14 14 (250880)
I1220 15:41:59.979389 12423 layer_factory.hpp:74] Creating layer inception_4c/3x3
I1220 15:41:59.979394 12423 net.cpp:90] Creating Layer inception_4c/3x3
I1220 15:41:59.979398 12423 net.cpp:410] inception_4c/3x3 <- inception_4c/3x3_reduce
I1220 15:41:59.979404 12423 net.cpp:368] inception_4c/3x3 -> inception_4c/3x3
I1220 15:41:59.979410 12423 net.cpp:120] Setting up inception_4c/3x3
I1220 15:41:59.981387 12423 net.cpp:127] Top shape: 10 256 14 14 (501760)
I1220 15:41:59.981405 12423 layer_factory.hpp:74] Creating layer inception_4c/relu_3x3_p
I1220 15:41:59.981411 12423 net.cpp:90] Creating Layer inception_4c/relu_3x3_p
I1220 15:41:59.981416 12423 net.cpp:410] inception_4c/relu_3x3_p <- inception_4c/3x3
I1220 15:41:59.981420 12423 net.cpp:357] inception_4c/relu_3x3_p -> inception_4c/3x3 (in-place)
I1220 15:41:59.981427 12423 net.cpp:120] Setting up inception_4c/relu_3x3_p
I1220 15:41:59.981432 12423 net.cpp:127] Top shape: 10 256 14 14 (501760)
I1220 15:41:59.981436 12423 layer_factory.hpp:74] Creating layer inception_4c/5x5_reduce
I1220 15:41:59.981442 12423 net.cpp:90] Creating Layer inception_4c/5x5_reduce
I1220 15:41:59.981446 12423 net.cpp:410] inception_4c/5x5_reduce <- inception_4b/output_inception_4b/output_0_split_2
I1220 15:41:59.981451 12423 net.cpp:368] inception_4c/5x5_reduce -> inception_4c/5x5_reduce
I1220 15:41:59.981457 12423 net.cpp:120] Setting up inception_4c/5x5_reduce
I1220 15:41:59.981547 12423 net.cpp:127] Top shape: 10 24 14 14 (47040)
I1220 15:41:59.981554 12423 layer_factory.hpp:74] Creating layer inception_4c/relu_5x5_reduce_p
I1220 15:41:59.981559 12423 net.cpp:90] Creating Layer inception_4c/relu_5x5_reduce_p
I1220 15:41:59.981564 12423 net.cpp:410] inception_4c/relu_5x5_reduce_p <- inception_4c/5x5_reduce
I1220 15:41:59.981569 12423 net.cpp:357] inception_4c/relu_5x5_reduce_p -> inception_4c/5x5_reduce (in-place)
I1220 15:41:59.981575 12423 net.cpp:120] Setting up inception_4c/relu_5x5_reduce_p
I1220 15:41:59.981580 12423 net.cpp:127] Top shape: 10 24 14 14 (47040)
I1220 15:41:59.981582 12423 layer_factory.hpp:74] Creating layer inception_4c/5x5
I1220 15:41:59.981588 12423 net.cpp:90] Creating Layer inception_4c/5x5
I1220 15:41:59.981592 12423 net.cpp:410] inception_4c/5x5 <- inception_4c/5x5_reduce
I1220 15:41:59.981598 12423 net.cpp:368] inception_4c/5x5 -> inception_4c/5x5
I1220 15:41:59.981603 12423 net.cpp:120] Setting up inception_4c/5x5
I1220 15:41:59.981868 12423 net.cpp:127] Top shape: 10 64 14 14 (125440)
I1220 15:41:59.981874 12423 layer_factory.hpp:74] Creating layer inception_4c/relu_5x5_p
I1220 15:41:59.981880 12423 net.cpp:90] Creating Layer inception_4c/relu_5x5_p
I1220 15:41:59.981885 12423 net.cpp:410] inception_4c/relu_5x5_p <- inception_4c/5x5
I1220 15:41:59.981889 12423 net.cpp:357] inception_4c/relu_5x5_p -> inception_4c/5x5 (in-place)
I1220 15:41:59.981895 12423 net.cpp:120] Setting up inception_4c/relu_5x5_p
I1220 15:41:59.981899 12423 net.cpp:127] Top shape: 10 64 14 14 (125440)
I1220 15:41:59.981904 12423 layer_factory.hpp:74] Creating layer inception_4c/pool
I1220 15:41:59.981909 12423 net.cpp:90] Creating Layer inception_4c/pool
I1220 15:41:59.981914 12423 net.cpp:410] inception_4c/pool <- inception_4b/output_inception_4b/output_0_split_3
I1220 15:41:59.981925 12423 net.cpp:368] inception_4c/pool -> inception_4c/pool
I1220 15:41:59.981931 12423 net.cpp:120] Setting up inception_4c/pool
I1220 15:41:59.981937 12423 net.cpp:127] Top shape: 10 512 14 14 (1003520)
I1220 15:41:59.981941 12423 layer_factory.hpp:74] Creating layer inception_4c/pool_proj
I1220 15:41:59.981947 12423 net.cpp:90] Creating Layer inception_4c/pool_proj
I1220 15:41:59.981952 12423 net.cpp:410] inception_4c/pool_proj <- inception_4c/pool
I1220 15:41:59.981958 12423 net.cpp:368] inception_4c/pool_proj -> inception_4c/pool_proj
I1220 15:41:59.981963 12423 net.cpp:120] Setting up inception_4c/pool_proj
I1220 15:41:59.982192 12423 net.cpp:127] Top shape: 10 64 14 14 (125440)
I1220 15:41:59.982198 12423 layer_factory.hpp:74] Creating layer inception_4c/relu_pool_proj_p
I1220 15:41:59.982204 12423 net.cpp:90] Creating Layer inception_4c/relu_pool_proj_p
I1220 15:41:59.982208 12423 net.cpp:410] inception_4c/relu_pool_proj_p <- inception_4c/pool_proj
I1220 15:41:59.982213 12423 net.cpp:357] inception_4c/relu_pool_proj_p -> inception_4c/pool_proj (in-place)
I1220 15:41:59.982218 12423 net.cpp:120] Setting up inception_4c/relu_pool_proj_p
I1220 15:41:59.982223 12423 net.cpp:127] Top shape: 10 64 14 14 (125440)
I1220 15:41:59.982226 12423 layer_factory.hpp:74] Creating layer inception_4c/output
I1220 15:41:59.982231 12423 net.cpp:90] Creating Layer inception_4c/output
I1220 15:41:59.982235 12423 net.cpp:410] inception_4c/output <- inception_4c/1x1
I1220 15:41:59.982239 12423 net.cpp:410] inception_4c/output <- inception_4c/3x3
I1220 15:41:59.982244 12423 net.cpp:410] inception_4c/output <- inception_4c/5x5
I1220 15:41:59.982249 12423 net.cpp:410] inception_4c/output <- inception_4c/pool_proj
I1220 15:41:59.982254 12423 net.cpp:368] inception_4c/output -> inception_4c/output
I1220 15:41:59.982259 12423 net.cpp:120] Setting up inception_4c/output
I1220 15:41:59.982265 12423 net.cpp:127] Top shape: 10 512 14 14 (1003520)
I1220 15:41:59.982269 12423 layer_factory.hpp:74] Creating layer inception_4c/output_inception_4c/output_0_split
I1220 15:41:59.982273 12423 net.cpp:90] Creating Layer inception_4c/output_inception_4c/output_0_split
I1220 15:41:59.982277 12423 net.cpp:410] inception_4c/output_inception_4c/output_0_split <- inception_4c/output
I1220 15:41:59.982282 12423 net.cpp:368] inception_4c/output_inception_4c/output_0_split -> inception_4c/output_inception_4c/output_0_split_0
I1220 15:41:59.982290 12423 net.cpp:368] inception_4c/output_inception_4c/output_0_split -> inception_4c/output_inception_4c/output_0_split_1
I1220 15:41:59.982296 12423 net.cpp:368] inception_4c/output_inception_4c/output_0_split -> inception_4c/output_inception_4c/output_0_split_2
I1220 15:41:59.982302 12423 net.cpp:368] inception_4c/output_inception_4c/output_0_split -> inception_4c/output_inception_4c/output_0_split_3
I1220 15:41:59.982307 12423 net.cpp:120] Setting up inception_4c/output_inception_4c/output_0_split
I1220 15:41:59.982313 12423 net.cpp:127] Top shape: 10 512 14 14 (1003520)
I1220 15:41:59.982317 12423 net.cpp:127] Top shape: 10 512 14 14 (1003520)
I1220 15:41:59.982321 12423 net.cpp:127] Top shape: 10 512 14 14 (1003520)
I1220 15:41:59.982326 12423 net.cpp:127] Top shape: 10 512 14 14 (1003520)
I1220 15:41:59.982329 12423 layer_factory.hpp:74] Creating layer inception_4d/1x1
I1220 15:41:59.982336 12423 net.cpp:90] Creating Layer inception_4d/1x1
I1220 15:41:59.982341 12423 net.cpp:410] inception_4d/1x1 <- inception_4c/output_inception_4c/output_0_split_0
I1220 15:41:59.982345 12423 net.cpp:368] inception_4d/1x1 -> inception_4d/1x1
I1220 15:41:59.982350 12423 net.cpp:120] Setting up inception_4d/1x1
I1220 15:41:59.982743 12423 net.cpp:127] Top shape: 10 112 14 14 (219520)
I1220 15:41:59.982749 12423 layer_factory.hpp:74] Creating layer inception_4d/relu_1x1_p
I1220 15:41:59.982754 12423 net.cpp:90] Creating Layer inception_4d/relu_1x1_p
I1220 15:41:59.982758 12423 net.cpp:410] inception_4d/relu_1x1_p <- inception_4d/1x1
I1220 15:41:59.982765 12423 net.cpp:357] inception_4d/relu_1x1_p -> inception_4d/1x1 (in-place)
I1220 15:41:59.982775 12423 net.cpp:120] Setting up inception_4d/relu_1x1_p
I1220 15:41:59.982780 12423 net.cpp:127] Top shape: 10 112 14 14 (219520)
I1220 15:41:59.982784 12423 layer_factory.hpp:74] Creating layer inception_4d/3x3_reduce
I1220 15:41:59.982790 12423 net.cpp:90] Creating Layer inception_4d/3x3_reduce
I1220 15:41:59.982795 12423 net.cpp:410] inception_4d/3x3_reduce <- inception_4c/output_inception_4c/output_0_split_1
I1220 15:41:59.982800 12423 net.cpp:368] inception_4d/3x3_reduce -> inception_4d/3x3_reduce
I1220 15:41:59.982805 12423 net.cpp:120] Setting up inception_4d/3x3_reduce
I1220 15:41:59.983306 12423 net.cpp:127] Top shape: 10 144 14 14 (282240)
I1220 15:41:59.983314 12423 layer_factory.hpp:74] Creating layer inception_4d/relu_3x3_reduce_p
I1220 15:41:59.983320 12423 net.cpp:90] Creating Layer inception_4d/relu_3x3_reduce_p
I1220 15:41:59.983325 12423 net.cpp:410] inception_4d/relu_3x3_reduce_p <- inception_4d/3x3_reduce
I1220 15:41:59.983330 12423 net.cpp:357] inception_4d/relu_3x3_reduce_p -> inception_4d/3x3_reduce (in-place)
I1220 15:41:59.983335 12423 net.cpp:120] Setting up inception_4d/relu_3x3_reduce_p
I1220 15:41:59.983340 12423 net.cpp:127] Top shape: 10 144 14 14 (282240)
I1220 15:41:59.983342 12423 layer_factory.hpp:74] Creating layer inception_4d/3x3
I1220 15:41:59.983350 12423 net.cpp:90] Creating Layer inception_4d/3x3
I1220 15:41:59.983353 12423 net.cpp:410] inception_4d/3x3 <- inception_4d/3x3_reduce
I1220 15:41:59.983358 12423 net.cpp:368] inception_4d/3x3 -> inception_4d/3x3
I1220 15:41:59.983364 12423 net.cpp:120] Setting up inception_4d/3x3
I1220 15:41:59.985862 12423 net.cpp:127] Top shape: 10 288 14 14 (564480)
I1220 15:41:59.985872 12423 layer_factory.hpp:74] Creating layer inception_4d/relu_3x3_p
I1220 15:41:59.985877 12423 net.cpp:90] Creating Layer inception_4d/relu_3x3_p
I1220 15:41:59.985882 12423 net.cpp:410] inception_4d/relu_3x3_p <- inception_4d/3x3
I1220 15:41:59.985887 12423 net.cpp:357] inception_4d/relu_3x3_p -> inception_4d/3x3 (in-place)
I1220 15:41:59.985893 12423 net.cpp:120] Setting up inception_4d/relu_3x3_p
I1220 15:41:59.985898 12423 net.cpp:127] Top shape: 10 288 14 14 (564480)
I1220 15:41:59.985901 12423 layer_factory.hpp:74] Creating layer inception_4d/5x5_reduce
I1220 15:41:59.985908 12423 net.cpp:90] Creating Layer inception_4d/5x5_reduce
I1220 15:41:59.985913 12423 net.cpp:410] inception_4d/5x5_reduce <- inception_4c/output_inception_4c/output_0_split_2
I1220 15:41:59.985918 12423 net.cpp:368] inception_4d/5x5_reduce -> inception_4d/5x5_reduce
I1220 15:41:59.985923 12423 net.cpp:120] Setting up inception_4d/5x5_reduce
I1220 15:41:59.986038 12423 net.cpp:127] Top shape: 10 32 14 14 (62720)
I1220 15:41:59.986045 12423 layer_factory.hpp:74] Creating layer inception_4d/relu_5x5_reduce_p
I1220 15:41:59.986049 12423 net.cpp:90] Creating Layer inception_4d/relu_5x5_reduce_p
I1220 15:41:59.986054 12423 net.cpp:410] inception_4d/relu_5x5_reduce_p <- inception_4d/5x5_reduce
I1220 15:41:59.986059 12423 net.cpp:357] inception_4d/relu_5x5_reduce_p -> inception_4d/5x5_reduce (in-place)
I1220 15:41:59.986064 12423 net.cpp:120] Setting up inception_4d/relu_5x5_reduce_p
I1220 15:41:59.986069 12423 net.cpp:127] Top shape: 10 32 14 14 (62720)
I1220 15:41:59.986073 12423 layer_factory.hpp:74] Creating layer inception_4d/5x5
I1220 15:41:59.986078 12423 net.cpp:90] Creating Layer inception_4d/5x5
I1220 15:41:59.986083 12423 net.cpp:410] inception_4d/5x5 <- inception_4d/5x5_reduce
I1220 15:41:59.986088 12423 net.cpp:368] inception_4d/5x5 -> inception_4d/5x5
I1220 15:41:59.986094 12423 net.cpp:120] Setting up inception_4d/5x5
I1220 15:41:59.986444 12423 net.cpp:127] Top shape: 10 64 14 14 (125440)
I1220 15:41:59.986452 12423 layer_factory.hpp:74] Creating layer inception_4d/relu_5x5_p
I1220 15:41:59.986457 12423 net.cpp:90] Creating Layer inception_4d/relu_5x5_p
I1220 15:41:59.986461 12423 net.cpp:410] inception_4d/relu_5x5_p <- inception_4d/5x5
I1220 15:41:59.986467 12423 net.cpp:357] inception_4d/relu_5x5_p -> inception_4d/5x5 (in-place)
I1220 15:41:59.986477 12423 net.cpp:120] Setting up inception_4d/relu_5x5_p
I1220 15:41:59.986486 12423 net.cpp:127] Top shape: 10 64 14 14 (125440)
I1220 15:41:59.986490 12423 layer_factory.hpp:74] Creating layer inception_4d/pool
I1220 15:41:59.986495 12423 net.cpp:90] Creating Layer inception_4d/pool
I1220 15:41:59.986500 12423 net.cpp:410] inception_4d/pool <- inception_4c/output_inception_4c/output_0_split_3
I1220 15:41:59.986505 12423 net.cpp:368] inception_4d/pool -> inception_4d/pool
I1220 15:41:59.986510 12423 net.cpp:120] Setting up inception_4d/pool
I1220 15:41:59.986516 12423 net.cpp:127] Top shape: 10 512 14 14 (1003520)
I1220 15:41:59.986521 12423 layer_factory.hpp:74] Creating layer inception_4d/pool_proj
I1220 15:41:59.986527 12423 net.cpp:90] Creating Layer inception_4d/pool_proj
I1220 15:41:59.986531 12423 net.cpp:410] inception_4d/pool_proj <- inception_4d/pool
I1220 15:41:59.986537 12423 net.cpp:368] inception_4d/pool_proj -> inception_4d/pool_proj
I1220 15:41:59.986543 12423 net.cpp:120] Setting up inception_4d/pool_proj
I1220 15:41:59.986769 12423 net.cpp:127] Top shape: 10 64 14 14 (125440)
I1220 15:41:59.986776 12423 layer_factory.hpp:74] Creating layer inception_4d/relu_pool_proj_p
I1220 15:41:59.986783 12423 net.cpp:90] Creating Layer inception_4d/relu_pool_proj_p
I1220 15:41:59.986788 12423 net.cpp:410] inception_4d/relu_pool_proj_p <- inception_4d/pool_proj
I1220 15:41:59.986791 12423 net.cpp:357] inception_4d/relu_pool_proj_p -> inception_4d/pool_proj (in-place)
I1220 15:41:59.986799 12423 net.cpp:120] Setting up inception_4d/relu_pool_proj_p
I1220 15:41:59.986804 12423 net.cpp:127] Top shape: 10 64 14 14 (125440)
I1220 15:41:59.986806 12423 layer_factory.hpp:74] Creating layer inception_4d/output
I1220 15:41:59.986811 12423 net.cpp:90] Creating Layer inception_4d/output
I1220 15:41:59.986815 12423 net.cpp:410] inception_4d/output <- inception_4d/1x1
I1220 15:41:59.986819 12423 net.cpp:410] inception_4d/output <- inception_4d/3x3
I1220 15:41:59.986824 12423 net.cpp:410] inception_4d/output <- inception_4d/5x5
I1220 15:41:59.986829 12423 net.cpp:410] inception_4d/output <- inception_4d/pool_proj
I1220 15:41:59.986834 12423 net.cpp:368] inception_4d/output -> inception_4d/output
I1220 15:41:59.986838 12423 net.cpp:120] Setting up inception_4d/output
I1220 15:41:59.986845 12423 net.cpp:127] Top shape: 10 528 14 14 (1034880)
I1220 15:41:59.986847 12423 layer_factory.hpp:74] Creating layer inception_4d/output_inception_4d/output_0_split
I1220 15:41:59.986853 12423 net.cpp:90] Creating Layer inception_4d/output_inception_4d/output_0_split
I1220 15:41:59.986857 12423 net.cpp:410] inception_4d/output_inception_4d/output_0_split <- inception_4d/output
I1220 15:41:59.986863 12423 net.cpp:368] inception_4d/output_inception_4d/output_0_split -> inception_4d/output_inception_4d/output_0_split_0
I1220 15:41:59.986870 12423 net.cpp:368] inception_4d/output_inception_4d/output_0_split -> inception_4d/output_inception_4d/output_0_split_1
I1220 15:41:59.986876 12423 net.cpp:368] inception_4d/output_inception_4d/output_0_split -> inception_4d/output_inception_4d/output_0_split_2
I1220 15:41:59.986881 12423 net.cpp:368] inception_4d/output_inception_4d/output_0_split -> inception_4d/output_inception_4d/output_0_split_3
I1220 15:41:59.986887 12423 net.cpp:368] inception_4d/output_inception_4d/output_0_split -> inception_4d/output_inception_4d/output_0_split_4
I1220 15:41:59.986894 12423 net.cpp:120] Setting up inception_4d/output_inception_4d/output_0_split
I1220 15:41:59.986901 12423 net.cpp:127] Top shape: 10 528 14 14 (1034880)
I1220 15:41:59.986904 12423 net.cpp:127] Top shape: 10 528 14 14 (1034880)
I1220 15:41:59.986908 12423 net.cpp:127] Top shape: 10 528 14 14 (1034880)
I1220 15:41:59.986913 12423 net.cpp:127] Top shape: 10 528 14 14 (1034880)
I1220 15:41:59.986917 12423 net.cpp:127] Top shape: 10 528 14 14 (1034880)
I1220 15:41:59.986920 12423 layer_factory.hpp:74] Creating layer loss2/ave_pool
I1220 15:41:59.986925 12423 net.cpp:90] Creating Layer loss2/ave_pool
I1220 15:41:59.986932 12423 net.cpp:410] loss2/ave_pool <- inception_4d/output_inception_4d/output_0_split_0
I1220 15:41:59.986945 12423 net.cpp:368] loss2/ave_pool -> loss2/ave_pool
I1220 15:41:59.986950 12423 net.cpp:120] Setting up loss2/ave_pool
I1220 15:41:59.986956 12423 net.cpp:127] Top shape: 10 528 4 4 (84480)
I1220 15:41:59.986960 12423 layer_factory.hpp:74] Creating layer loss2/conv
I1220 15:41:59.986966 12423 net.cpp:90] Creating Layer loss2/conv
I1220 15:41:59.986970 12423 net.cpp:410] loss2/conv <- loss2/ave_pool
I1220 15:41:59.986977 12423 net.cpp:368] loss2/conv -> loss2/conv
I1220 15:41:59.986982 12423 net.cpp:120] Setting up loss2/conv
I1220 15:41:59.987439 12423 net.cpp:127] Top shape: 10 128 4 4 (20480)
I1220 15:41:59.987447 12423 layer_factory.hpp:74] Creating layer loss2/relu_conv_p
I1220 15:41:59.987452 12423 net.cpp:90] Creating Layer loss2/relu_conv_p
I1220 15:41:59.987457 12423 net.cpp:410] loss2/relu_conv_p <- loss2/conv
I1220 15:41:59.987462 12423 net.cpp:357] loss2/relu_conv_p -> loss2/conv (in-place)
I1220 15:41:59.987468 12423 net.cpp:120] Setting up loss2/relu_conv_p
I1220 15:41:59.987473 12423 net.cpp:127] Top shape: 10 128 4 4 (20480)
I1220 15:41:59.987475 12423 layer_factory.hpp:74] Creating layer loss2/fc
I1220 15:41:59.987483 12423 net.cpp:90] Creating Layer loss2/fc
I1220 15:41:59.987488 12423 net.cpp:410] loss2/fc <- loss2/conv
I1220 15:41:59.987493 12423 net.cpp:368] loss2/fc -> loss2/fc
I1220 15:41:59.987498 12423 net.cpp:120] Setting up loss2/fc
I1220 15:42:00.001792 12423 net.cpp:127] Top shape: 10 1024 (10240)
I1220 15:42:00.001852 12423 layer_factory.hpp:74] Creating layer loss2/relu_fc_p
I1220 15:42:00.001864 12423 net.cpp:90] Creating Layer loss2/relu_fc_p
I1220 15:42:00.001873 12423 net.cpp:410] loss2/relu_fc_p <- loss2/fc
I1220 15:42:00.001879 12423 net.cpp:357] loss2/relu_fc_p -> loss2/fc (in-place)
I1220 15:42:00.001890 12423 net.cpp:120] Setting up loss2/relu_fc_p
I1220 15:42:00.001896 12423 net.cpp:127] Top shape: 10 1024 (10240)
I1220 15:42:00.001900 12423 layer_factory.hpp:74] Creating layer loss2/drop_fc
I1220 15:42:00.001906 12423 net.cpp:90] Creating Layer loss2/drop_fc
I1220 15:42:00.001911 12423 net.cpp:410] loss2/drop_fc <- loss2/fc
I1220 15:42:00.001915 12423 net.cpp:357] loss2/drop_fc -> loss2/fc (in-place)
I1220 15:42:00.001921 12423 net.cpp:120] Setting up loss2/drop_fc
I1220 15:42:00.001929 12423 net.cpp:127] Top shape: 10 1024 (10240)
I1220 15:42:00.001931 12423 layer_factory.hpp:74] Creating layer loss2/classifier_MIT
I1220 15:42:00.001940 12423 net.cpp:90] Creating Layer loss2/classifier_MIT
I1220 15:42:00.001943 12423 net.cpp:410] loss2/classifier_MIT <- loss2/fc
I1220 15:42:00.001950 12423 net.cpp:368] loss2/classifier_MIT -> loss2/classifier_MIT
I1220 15:42:00.001957 12423 net.cpp:120] Setting up loss2/classifier_MIT
I1220 15:42:00.002452 12423 net.cpp:127] Top shape: 10 67 (670)
I1220 15:42:00.002460 12423 layer_factory.hpp:74] Creating layer loss2/loss
I1220 15:42:00.002466 12423 net.cpp:90] Creating Layer loss2/loss
I1220 15:42:00.002471 12423 net.cpp:410] loss2/loss <- loss2/classifier_MIT
I1220 15:42:00.002476 12423 net.cpp:410] loss2/loss <- label_data_1_split_1
I1220 15:42:00.002481 12423 net.cpp:368] loss2/loss -> loss2/loss1
I1220 15:42:00.002487 12423 net.cpp:120] Setting up loss2/loss
I1220 15:42:00.002493 12423 layer_factory.hpp:74] Creating layer loss2/loss
I1220 15:42:00.002506 12423 net.cpp:127] Top shape: (1)
I1220 15:42:00.002511 12423 net.cpp:129]     with loss weight 0.3
I1220 15:42:00.002521 12423 layer_factory.hpp:74] Creating layer inception_4e/1x1
I1220 15:42:00.002528 12423 net.cpp:90] Creating Layer inception_4e/1x1
I1220 15:42:00.002534 12423 net.cpp:410] inception_4e/1x1 <- inception_4d/output_inception_4d/output_0_split_1
I1220 15:42:00.002542 12423 net.cpp:368] inception_4e/1x1 -> inception_4e/1x1
I1220 15:42:00.002548 12423 net.cpp:120] Setting up inception_4e/1x1
I1220 15:42:00.003509 12423 net.cpp:127] Top shape: 10 256 14 14 (501760)
I1220 15:42:00.003517 12423 layer_factory.hpp:74] Creating layer inception_4e/relu_1x1_p
I1220 15:42:00.003530 12423 net.cpp:90] Creating Layer inception_4e/relu_1x1_p
I1220 15:42:00.003540 12423 net.cpp:410] inception_4e/relu_1x1_p <- inception_4e/1x1
I1220 15:42:00.003545 12423 net.cpp:357] inception_4e/relu_1x1_p -> inception_4e/1x1 (in-place)
I1220 15:42:00.003551 12423 net.cpp:120] Setting up inception_4e/relu_1x1_p
I1220 15:42:00.003556 12423 net.cpp:127] Top shape: 10 256 14 14 (501760)
I1220 15:42:00.003559 12423 layer_factory.hpp:74] Creating layer inception_4e/3x3_reduce
I1220 15:42:00.003566 12423 net.cpp:90] Creating Layer inception_4e/3x3_reduce
I1220 15:42:00.003569 12423 net.cpp:410] inception_4e/3x3_reduce <- inception_4d/output_inception_4d/output_0_split_2
I1220 15:42:00.003576 12423 net.cpp:368] inception_4e/3x3_reduce -> inception_4e/3x3_reduce
I1220 15:42:00.003582 12423 net.cpp:120] Setting up inception_4e/3x3_reduce
I1220 15:42:00.004166 12423 net.cpp:127] Top shape: 10 160 14 14 (313600)
I1220 15:42:00.004174 12423 layer_factory.hpp:74] Creating layer inception_4e/relu_3x3_reduce_p
I1220 15:42:00.004180 12423 net.cpp:90] Creating Layer inception_4e/relu_3x3_reduce_p
I1220 15:42:00.004184 12423 net.cpp:410] inception_4e/relu_3x3_reduce_p <- inception_4e/3x3_reduce
I1220 15:42:00.004189 12423 net.cpp:357] inception_4e/relu_3x3_reduce_p -> inception_4e/3x3_reduce (in-place)
I1220 15:42:00.004194 12423 net.cpp:120] Setting up inception_4e/relu_3x3_reduce_p
I1220 15:42:00.004199 12423 net.cpp:127] Top shape: 10 160 14 14 (313600)
I1220 15:42:00.004204 12423 layer_factory.hpp:74] Creating layer inception_4e/3x3
I1220 15:42:00.004209 12423 net.cpp:90] Creating Layer inception_4e/3x3
I1220 15:42:00.004212 12423 net.cpp:410] inception_4e/3x3 <- inception_4e/3x3_reduce
I1220 15:42:00.004220 12423 net.cpp:368] inception_4e/3x3 -> inception_4e/3x3
I1220 15:42:00.004225 12423 net.cpp:120] Setting up inception_4e/3x3
I1220 15:42:00.007405 12423 net.cpp:127] Top shape: 10 320 14 14 (627200)
I1220 15:42:00.007414 12423 layer_factory.hpp:74] Creating layer inception_4e/relu_3x3_p
I1220 15:42:00.007421 12423 net.cpp:90] Creating Layer inception_4e/relu_3x3_p
I1220 15:42:00.007424 12423 net.cpp:410] inception_4e/relu_3x3_p <- inception_4e/3x3
I1220 15:42:00.007429 12423 net.cpp:357] inception_4e/relu_3x3_p -> inception_4e/3x3 (in-place)
I1220 15:42:00.007436 12423 net.cpp:120] Setting up inception_4e/relu_3x3_p
I1220 15:42:00.007439 12423 net.cpp:127] Top shape: 10 320 14 14 (627200)
I1220 15:42:00.007443 12423 layer_factory.hpp:74] Creating layer inception_4e/5x5_reduce
I1220 15:42:00.007450 12423 net.cpp:90] Creating Layer inception_4e/5x5_reduce
I1220 15:42:00.007454 12423 net.cpp:410] inception_4e/5x5_reduce <- inception_4d/output_inception_4d/output_0_split_3
I1220 15:42:00.007459 12423 net.cpp:368] inception_4e/5x5_reduce -> inception_4e/5x5_reduce
I1220 15:42:00.007465 12423 net.cpp:120] Setting up inception_4e/5x5_reduce
I1220 15:42:00.007606 12423 net.cpp:127] Top shape: 10 32 14 14 (62720)
I1220 15:42:00.007612 12423 layer_factory.hpp:74] Creating layer inception_4e/relu_5x5_reduce_p
I1220 15:42:00.007617 12423 net.cpp:90] Creating Layer inception_4e/relu_5x5_reduce_p
I1220 15:42:00.007622 12423 net.cpp:410] inception_4e/relu_5x5_reduce_p <- inception_4e/5x5_reduce
I1220 15:42:00.007627 12423 net.cpp:357] inception_4e/relu_5x5_reduce_p -> inception_4e/5x5_reduce (in-place)
I1220 15:42:00.007632 12423 net.cpp:120] Setting up inception_4e/relu_5x5_reduce_p
I1220 15:42:00.007637 12423 net.cpp:127] Top shape: 10 32 14 14 (62720)
I1220 15:42:00.007640 12423 layer_factory.hpp:74] Creating layer inception_4e/5x5
I1220 15:42:00.007659 12423 net.cpp:90] Creating Layer inception_4e/5x5
I1220 15:42:00.007664 12423 net.cpp:410] inception_4e/5x5 <- inception_4e/5x5_reduce
I1220 15:42:00.007669 12423 net.cpp:368] inception_4e/5x5 -> inception_4e/5x5
I1220 15:42:00.007675 12423 net.cpp:120] Setting up inception_4e/5x5
I1220 15:42:00.008385 12423 net.cpp:127] Top shape: 10 128 14 14 (250880)
I1220 15:42:00.008394 12423 layer_factory.hpp:74] Creating layer inception_4e/relu_5x5_p
I1220 15:42:00.008402 12423 net.cpp:90] Creating Layer inception_4e/relu_5x5_p
I1220 15:42:00.008406 12423 net.cpp:410] inception_4e/relu_5x5_p <- inception_4e/5x5
I1220 15:42:00.008436 12423 net.cpp:357] inception_4e/relu_5x5_p -> inception_4e/5x5 (in-place)
I1220 15:42:00.008445 12423 net.cpp:120] Setting up inception_4e/relu_5x5_p
I1220 15:42:00.008450 12423 net.cpp:127] Top shape: 10 128 14 14 (250880)
I1220 15:42:00.008453 12423 layer_factory.hpp:74] Creating layer inception_4e/pool
I1220 15:42:00.008460 12423 net.cpp:90] Creating Layer inception_4e/pool
I1220 15:42:00.008466 12423 net.cpp:410] inception_4e/pool <- inception_4d/output_inception_4d/output_0_split_4
I1220 15:42:00.008471 12423 net.cpp:368] inception_4e/pool -> inception_4e/pool
I1220 15:42:00.008477 12423 net.cpp:120] Setting up inception_4e/pool
I1220 15:42:00.008486 12423 net.cpp:127] Top shape: 10 528 14 14 (1034880)
I1220 15:42:00.008489 12423 layer_factory.hpp:74] Creating layer inception_4e/pool_proj
I1220 15:42:00.008496 12423 net.cpp:90] Creating Layer inception_4e/pool_proj
I1220 15:42:00.008501 12423 net.cpp:410] inception_4e/pool_proj <- inception_4e/pool
I1220 15:42:00.008507 12423 net.cpp:368] inception_4e/pool_proj -> inception_4e/pool_proj
I1220 15:42:00.008512 12423 net.cpp:120] Setting up inception_4e/pool_proj
I1220 15:42:00.008981 12423 net.cpp:127] Top shape: 10 128 14 14 (250880)
I1220 15:42:00.008988 12423 layer_factory.hpp:74] Creating layer inception_4e/relu_pool_proj_p
I1220 15:42:00.008994 12423 net.cpp:90] Creating Layer inception_4e/relu_pool_proj_p
I1220 15:42:00.008999 12423 net.cpp:410] inception_4e/relu_pool_proj_p <- inception_4e/pool_proj
I1220 15:42:00.009003 12423 net.cpp:357] inception_4e/relu_pool_proj_p -> inception_4e/pool_proj (in-place)
I1220 15:42:00.009009 12423 net.cpp:120] Setting up inception_4e/relu_pool_proj_p
I1220 15:42:00.009014 12423 net.cpp:127] Top shape: 10 128 14 14 (250880)
I1220 15:42:00.009017 12423 layer_factory.hpp:74] Creating layer inception_4e/output
I1220 15:42:00.009022 12423 net.cpp:90] Creating Layer inception_4e/output
I1220 15:42:00.009027 12423 net.cpp:410] inception_4e/output <- inception_4e/1x1
I1220 15:42:00.009032 12423 net.cpp:410] inception_4e/output <- inception_4e/3x3
I1220 15:42:00.009037 12423 net.cpp:410] inception_4e/output <- inception_4e/5x5
I1220 15:42:00.009042 12423 net.cpp:410] inception_4e/output <- inception_4e/pool_proj
I1220 15:42:00.009045 12423 net.cpp:368] inception_4e/output -> inception_4e/output
I1220 15:42:00.009052 12423 net.cpp:120] Setting up inception_4e/output
I1220 15:42:00.009057 12423 net.cpp:127] Top shape: 10 832 14 14 (1630720)
I1220 15:42:00.009062 12423 layer_factory.hpp:74] Creating layer pool4/3x3_s2
I1220 15:42:00.009065 12423 net.cpp:90] Creating Layer pool4/3x3_s2
I1220 15:42:00.009069 12423 net.cpp:410] pool4/3x3_s2 <- inception_4e/output
I1220 15:42:00.009078 12423 net.cpp:368] pool4/3x3_s2 -> pool4/3x3_s2
I1220 15:42:00.009083 12423 net.cpp:120] Setting up pool4/3x3_s2
I1220 15:42:00.009089 12423 net.cpp:127] Top shape: 10 832 7 7 (407680)
I1220 15:42:00.009093 12423 layer_factory.hpp:74] Creating layer pool4/3x3_s2_pool4/3x3_s2_0_split
I1220 15:42:00.009098 12423 net.cpp:90] Creating Layer pool4/3x3_s2_pool4/3x3_s2_0_split
I1220 15:42:00.009101 12423 net.cpp:410] pool4/3x3_s2_pool4/3x3_s2_0_split <- pool4/3x3_s2
I1220 15:42:00.009107 12423 net.cpp:368] pool4/3x3_s2_pool4/3x3_s2_0_split -> pool4/3x3_s2_pool4/3x3_s2_0_split_0
I1220 15:42:00.009114 12423 net.cpp:368] pool4/3x3_s2_pool4/3x3_s2_0_split -> pool4/3x3_s2_pool4/3x3_s2_0_split_1
I1220 15:42:00.009119 12423 net.cpp:368] pool4/3x3_s2_pool4/3x3_s2_0_split -> pool4/3x3_s2_pool4/3x3_s2_0_split_2
I1220 15:42:00.009125 12423 net.cpp:368] pool4/3x3_s2_pool4/3x3_s2_0_split -> pool4/3x3_s2_pool4/3x3_s2_0_split_3
I1220 15:42:00.009130 12423 net.cpp:120] Setting up pool4/3x3_s2_pool4/3x3_s2_0_split
I1220 15:42:00.009136 12423 net.cpp:127] Top shape: 10 832 7 7 (407680)
I1220 15:42:00.009140 12423 net.cpp:127] Top shape: 10 832 7 7 (407680)
I1220 15:42:00.009145 12423 net.cpp:127] Top shape: 10 832 7 7 (407680)
I1220 15:42:00.009151 12423 net.cpp:127] Top shape: 10 832 7 7 (407680)
I1220 15:42:00.009160 12423 layer_factory.hpp:74] Creating layer inception_5a/1x1
I1220 15:42:00.009166 12423 net.cpp:90] Creating Layer inception_5a/1x1
I1220 15:42:00.009171 12423 net.cpp:410] inception_5a/1x1 <- pool4/3x3_s2_pool4/3x3_s2_0_split_0
I1220 15:42:00.009176 12423 net.cpp:368] inception_5a/1x1 -> inception_5a/1x1
I1220 15:42:00.009182 12423 net.cpp:120] Setting up inception_5a/1x1
I1220 15:42:00.010622 12423 net.cpp:127] Top shape: 10 256 7 7 (125440)
I1220 15:42:00.010630 12423 layer_factory.hpp:74] Creating layer inception_5a/relu_1x1_p
I1220 15:42:00.010637 12423 net.cpp:90] Creating Layer inception_5a/relu_1x1_p
I1220 15:42:00.010640 12423 net.cpp:410] inception_5a/relu_1x1_p <- inception_5a/1x1
I1220 15:42:00.010645 12423 net.cpp:357] inception_5a/relu_1x1_p -> inception_5a/1x1 (in-place)
I1220 15:42:00.010650 12423 net.cpp:120] Setting up inception_5a/relu_1x1_p
I1220 15:42:00.010655 12423 net.cpp:127] Top shape: 10 256 7 7 (125440)
I1220 15:42:00.010658 12423 layer_factory.hpp:74] Creating layer inception_5a/3x3_reduce
I1220 15:42:00.010665 12423 net.cpp:90] Creating Layer inception_5a/3x3_reduce
I1220 15:42:00.010670 12423 net.cpp:410] inception_5a/3x3_reduce <- pool4/3x3_s2_pool4/3x3_s2_0_split_1
I1220 15:42:00.010685 12423 net.cpp:368] inception_5a/3x3_reduce -> inception_5a/3x3_reduce
I1220 15:42:00.010691 12423 net.cpp:120] Setting up inception_5a/3x3_reduce
I1220 15:42:00.011593 12423 net.cpp:127] Top shape: 10 160 7 7 (78400)
I1220 15:42:00.011601 12423 layer_factory.hpp:74] Creating layer inception_5a/relu_3x3_reduce_p
I1220 15:42:00.011606 12423 net.cpp:90] Creating Layer inception_5a/relu_3x3_reduce_p
I1220 15:42:00.011611 12423 net.cpp:410] inception_5a/relu_3x3_reduce_p <- inception_5a/3x3_reduce
I1220 15:42:00.011616 12423 net.cpp:357] inception_5a/relu_3x3_reduce_p -> inception_5a/3x3_reduce (in-place)
I1220 15:42:00.011621 12423 net.cpp:120] Setting up inception_5a/relu_3x3_reduce_p
I1220 15:42:00.011626 12423 net.cpp:127] Top shape: 10 160 7 7 (78400)
I1220 15:42:00.011631 12423 layer_factory.hpp:74] Creating layer inception_5a/3x3
I1220 15:42:00.011636 12423 net.cpp:90] Creating Layer inception_5a/3x3
I1220 15:42:00.011639 12423 net.cpp:410] inception_5a/3x3 <- inception_5a/3x3_reduce
I1220 15:42:00.011646 12423 net.cpp:368] inception_5a/3x3 -> inception_5a/3x3
I1220 15:42:00.011651 12423 net.cpp:120] Setting up inception_5a/3x3
I1220 15:42:00.014799 12423 net.cpp:127] Top shape: 10 320 7 7 (156800)
I1220 15:42:00.014811 12423 layer_factory.hpp:74] Creating layer inception_5a/relu_3x3_p
I1220 15:42:00.014816 12423 net.cpp:90] Creating Layer inception_5a/relu_3x3_p
I1220 15:42:00.014821 12423 net.cpp:410] inception_5a/relu_3x3_p <- inception_5a/3x3
I1220 15:42:00.014825 12423 net.cpp:357] inception_5a/relu_3x3_p -> inception_5a/3x3 (in-place)
I1220 15:42:00.014832 12423 net.cpp:120] Setting up inception_5a/relu_3x3_p
I1220 15:42:00.014837 12423 net.cpp:127] Top shape: 10 320 7 7 (156800)
I1220 15:42:00.014840 12423 layer_factory.hpp:74] Creating layer inception_5a/5x5_reduce
I1220 15:42:00.014845 12423 net.cpp:90] Creating Layer inception_5a/5x5_reduce
I1220 15:42:00.014850 12423 net.cpp:410] inception_5a/5x5_reduce <- pool4/3x3_s2_pool4/3x3_s2_0_split_2
I1220 15:42:00.014858 12423 net.cpp:368] inception_5a/5x5_reduce -> inception_5a/5x5_reduce
I1220 15:42:00.014863 12423 net.cpp:120] Setting up inception_5a/5x5_reduce
I1220 15:42:00.015069 12423 net.cpp:127] Top shape: 10 32 7 7 (15680)
I1220 15:42:00.015075 12423 layer_factory.hpp:74] Creating layer inception_5a/relu_5x5_reduce_p
I1220 15:42:00.015081 12423 net.cpp:90] Creating Layer inception_5a/relu_5x5_reduce_p
I1220 15:42:00.015085 12423 net.cpp:410] inception_5a/relu_5x5_reduce_p <- inception_5a/5x5_reduce
I1220 15:42:00.015090 12423 net.cpp:357] inception_5a/relu_5x5_reduce_p -> inception_5a/5x5_reduce (in-place)
I1220 15:42:00.015095 12423 net.cpp:120] Setting up inception_5a/relu_5x5_reduce_p
I1220 15:42:00.015100 12423 net.cpp:127] Top shape: 10 32 7 7 (15680)
I1220 15:42:00.015110 12423 layer_factory.hpp:74] Creating layer inception_5a/5x5
I1220 15:42:00.015120 12423 net.cpp:90] Creating Layer inception_5a/5x5
I1220 15:42:00.015125 12423 net.cpp:410] inception_5a/5x5 <- inception_5a/5x5_reduce
I1220 15:42:00.015130 12423 net.cpp:368] inception_5a/5x5 -> inception_5a/5x5
I1220 15:42:00.015136 12423 net.cpp:120] Setting up inception_5a/5x5
I1220 15:42:00.015822 12423 net.cpp:127] Top shape: 10 128 7 7 (62720)
I1220 15:42:00.015830 12423 layer_factory.hpp:74] Creating layer inception_5a/relu_5x5_p
I1220 15:42:00.015835 12423 net.cpp:90] Creating Layer inception_5a/relu_5x5_p
I1220 15:42:00.015840 12423 net.cpp:410] inception_5a/relu_5x5_p <- inception_5a/5x5
I1220 15:42:00.015846 12423 net.cpp:357] inception_5a/relu_5x5_p -> inception_5a/5x5 (in-place)
I1220 15:42:00.015851 12423 net.cpp:120] Setting up inception_5a/relu_5x5_p
I1220 15:42:00.015856 12423 net.cpp:127] Top shape: 10 128 7 7 (62720)
I1220 15:42:00.015859 12423 layer_factory.hpp:74] Creating layer inception_5a/pool
I1220 15:42:00.015864 12423 net.cpp:90] Creating Layer inception_5a/pool
I1220 15:42:00.015868 12423 net.cpp:410] inception_5a/pool <- pool4/3x3_s2_pool4/3x3_s2_0_split_3
I1220 15:42:00.015874 12423 net.cpp:368] inception_5a/pool -> inception_5a/pool
I1220 15:42:00.015880 12423 net.cpp:120] Setting up inception_5a/pool
I1220 15:42:00.015887 12423 net.cpp:127] Top shape: 10 832 7 7 (407680)
I1220 15:42:00.015892 12423 layer_factory.hpp:74] Creating layer inception_5a/pool_proj
I1220 15:42:00.015897 12423 net.cpp:90] Creating Layer inception_5a/pool_proj
I1220 15:42:00.015900 12423 net.cpp:410] inception_5a/pool_proj <- inception_5a/pool
I1220 15:42:00.015907 12423 net.cpp:368] inception_5a/pool_proj -> inception_5a/pool_proj
I1220 15:42:00.015913 12423 net.cpp:120] Setting up inception_5a/pool_proj
I1220 15:42:00.016651 12423 net.cpp:127] Top shape: 10 128 7 7 (62720)
I1220 15:42:00.016659 12423 layer_factory.hpp:74] Creating layer inception_5a/relu_pool_proj_p
I1220 15:42:00.016665 12423 net.cpp:90] Creating Layer inception_5a/relu_pool_proj_p
I1220 15:42:00.016670 12423 net.cpp:410] inception_5a/relu_pool_proj_p <- inception_5a/pool_proj
I1220 15:42:00.016674 12423 net.cpp:357] inception_5a/relu_pool_proj_p -> inception_5a/pool_proj (in-place)
I1220 15:42:00.016681 12423 net.cpp:120] Setting up inception_5a/relu_pool_proj_p
I1220 15:42:00.016686 12423 net.cpp:127] Top shape: 10 128 7 7 (62720)
I1220 15:42:00.016690 12423 layer_factory.hpp:74] Creating layer inception_5a/output
I1220 15:42:00.016695 12423 net.cpp:90] Creating Layer inception_5a/output
I1220 15:42:00.016698 12423 net.cpp:410] inception_5a/output <- inception_5a/1x1
I1220 15:42:00.016703 12423 net.cpp:410] inception_5a/output <- inception_5a/3x3
I1220 15:42:00.016708 12423 net.cpp:410] inception_5a/output <- inception_5a/5x5
I1220 15:42:00.016712 12423 net.cpp:410] inception_5a/output <- inception_5a/pool_proj
I1220 15:42:00.016717 12423 net.cpp:368] inception_5a/output -> inception_5a/output
I1220 15:42:00.016722 12423 net.cpp:120] Setting up inception_5a/output
I1220 15:42:00.016728 12423 net.cpp:127] Top shape: 10 832 7 7 (407680)
I1220 15:42:00.016732 12423 layer_factory.hpp:74] Creating layer inception_5a/output_inception_5a/output_0_split
I1220 15:42:00.016737 12423 net.cpp:90] Creating Layer inception_5a/output_inception_5a/output_0_split
I1220 15:42:00.016741 12423 net.cpp:410] inception_5a/output_inception_5a/output_0_split <- inception_5a/output
I1220 15:42:00.016747 12423 net.cpp:368] inception_5a/output_inception_5a/output_0_split -> inception_5a/output_inception_5a/output_0_split_0
I1220 15:42:00.016753 12423 net.cpp:368] inception_5a/output_inception_5a/output_0_split -> inception_5a/output_inception_5a/output_0_split_1
I1220 15:42:00.016760 12423 net.cpp:368] inception_5a/output_inception_5a/output_0_split -> inception_5a/output_inception_5a/output_0_split_2
I1220 15:42:00.016767 12423 net.cpp:368] inception_5a/output_inception_5a/output_0_split -> inception_5a/output_inception_5a/output_0_split_3
I1220 15:42:00.016774 12423 net.cpp:120] Setting up inception_5a/output_inception_5a/output_0_split
I1220 15:42:00.016785 12423 net.cpp:127] Top shape: 10 832 7 7 (407680)
I1220 15:42:00.016790 12423 net.cpp:127] Top shape: 10 832 7 7 (407680)
I1220 15:42:00.016794 12423 net.cpp:127] Top shape: 10 832 7 7 (407680)
I1220 15:42:00.016798 12423 net.cpp:127] Top shape: 10 832 7 7 (407680)
I1220 15:42:00.016803 12423 layer_factory.hpp:74] Creating layer inception_5b/1x1
I1220 15:42:00.016808 12423 net.cpp:90] Creating Layer inception_5b/1x1
I1220 15:42:00.016813 12423 net.cpp:410] inception_5b/1x1 <- inception_5a/output_inception_5a/output_0_split_0
I1220 15:42:00.016819 12423 net.cpp:368] inception_5b/1x1 -> inception_5b/1x1
I1220 15:42:00.016824 12423 net.cpp:120] Setting up inception_5b/1x1
I1220 15:42:00.019011 12423 net.cpp:127] Top shape: 10 384 7 7 (188160)
I1220 15:42:00.019018 12423 layer_factory.hpp:74] Creating layer inception_5b/relu_1x1_p
I1220 15:42:00.019024 12423 net.cpp:90] Creating Layer inception_5b/relu_1x1_p
I1220 15:42:00.019028 12423 net.cpp:410] inception_5b/relu_1x1_p <- inception_5b/1x1
I1220 15:42:00.019034 12423 net.cpp:357] inception_5b/relu_1x1_p -> inception_5b/1x1 (in-place)
I1220 15:42:00.019040 12423 net.cpp:120] Setting up inception_5b/relu_1x1_p
I1220 15:42:00.019045 12423 net.cpp:127] Top shape: 10 384 7 7 (188160)
I1220 15:42:00.019048 12423 layer_factory.hpp:74] Creating layer inception_5b/3x3_reduce
I1220 15:42:00.019054 12423 net.cpp:90] Creating Layer inception_5b/3x3_reduce
I1220 15:42:00.019058 12423 net.cpp:410] inception_5b/3x3_reduce <- inception_5a/output_inception_5a/output_0_split_1
I1220 15:42:00.019065 12423 net.cpp:368] inception_5b/3x3_reduce -> inception_5b/3x3_reduce
I1220 15:42:00.019070 12423 net.cpp:120] Setting up inception_5b/3x3_reduce
I1220 15:42:00.020158 12423 net.cpp:127] Top shape: 10 192 7 7 (94080)
I1220 15:42:00.020165 12423 layer_factory.hpp:74] Creating layer inception_5b/relu_3x3_reduce_p
I1220 15:42:00.020171 12423 net.cpp:90] Creating Layer inception_5b/relu_3x3_reduce_p
I1220 15:42:00.020175 12423 net.cpp:410] inception_5b/relu_3x3_reduce_p <- inception_5b/3x3_reduce
I1220 15:42:00.020180 12423 net.cpp:357] inception_5b/relu_3x3_reduce_p -> inception_5b/3x3_reduce (in-place)
I1220 15:42:00.020187 12423 net.cpp:120] Setting up inception_5b/relu_3x3_reduce_p
I1220 15:42:00.020191 12423 net.cpp:127] Top shape: 10 192 7 7 (94080)
I1220 15:42:00.020195 12423 layer_factory.hpp:74] Creating layer inception_5b/3x3
I1220 15:42:00.020201 12423 net.cpp:90] Creating Layer inception_5b/3x3
I1220 15:42:00.020205 12423 net.cpp:410] inception_5b/3x3 <- inception_5b/3x3_reduce
I1220 15:42:00.020210 12423 net.cpp:368] inception_5b/3x3 -> inception_5b/3x3
I1220 15:42:00.020227 12423 net.cpp:120] Setting up inception_5b/3x3
I1220 15:42:00.024726 12423 net.cpp:127] Top shape: 10 384 7 7 (188160)
I1220 15:42:00.024739 12423 layer_factory.hpp:74] Creating layer inception_5b/relu_3x3_p
I1220 15:42:00.024745 12423 net.cpp:90] Creating Layer inception_5b/relu_3x3_p
I1220 15:42:00.024750 12423 net.cpp:410] inception_5b/relu_3x3_p <- inception_5b/3x3
I1220 15:42:00.024755 12423 net.cpp:357] inception_5b/relu_3x3_p -> inception_5b/3x3 (in-place)
I1220 15:42:00.024761 12423 net.cpp:120] Setting up inception_5b/relu_3x3_p
I1220 15:42:00.024767 12423 net.cpp:127] Top shape: 10 384 7 7 (188160)
I1220 15:42:00.024770 12423 layer_factory.hpp:74] Creating layer inception_5b/5x5_reduce
I1220 15:42:00.024777 12423 net.cpp:90] Creating Layer inception_5b/5x5_reduce
I1220 15:42:00.024782 12423 net.cpp:410] inception_5b/5x5_reduce <- inception_5a/output_inception_5a/output_0_split_2
I1220 15:42:00.024788 12423 net.cpp:368] inception_5b/5x5_reduce -> inception_5b/5x5_reduce
I1220 15:42:00.024793 12423 net.cpp:120] Setting up inception_5b/5x5_reduce
I1220 15:42:00.025068 12423 net.cpp:127] Top shape: 10 48 7 7 (23520)
I1220 15:42:00.025092 12423 layer_factory.hpp:74] Creating layer inception_5b/relu_5x5_reduce_p
I1220 15:42:00.025099 12423 net.cpp:90] Creating Layer inception_5b/relu_5x5_reduce_p
I1220 15:42:00.025110 12423 net.cpp:410] inception_5b/relu_5x5_reduce_p <- inception_5b/5x5_reduce
I1220 15:42:00.025121 12423 net.cpp:357] inception_5b/relu_5x5_reduce_p -> inception_5b/5x5_reduce (in-place)
I1220 15:42:00.025127 12423 net.cpp:120] Setting up inception_5b/relu_5x5_reduce_p
I1220 15:42:00.025132 12423 net.cpp:127] Top shape: 10 48 7 7 (23520)
I1220 15:42:00.025136 12423 layer_factory.hpp:74] Creating layer inception_5b/5x5
I1220 15:42:00.025142 12423 net.cpp:90] Creating Layer inception_5b/5x5
I1220 15:42:00.025146 12423 net.cpp:410] inception_5b/5x5 <- inception_5b/5x5_reduce
I1220 15:42:00.025153 12423 net.cpp:368] inception_5b/5x5 -> inception_5b/5x5
I1220 15:42:00.025159 12423 net.cpp:120] Setting up inception_5b/5x5
I1220 15:42:00.026226 12423 net.cpp:127] Top shape: 10 128 7 7 (62720)
I1220 15:42:00.026235 12423 layer_factory.hpp:74] Creating layer inception_5b/relu_5x5_p
I1220 15:42:00.026242 12423 net.cpp:90] Creating Layer inception_5b/relu_5x5_p
I1220 15:42:00.026247 12423 net.cpp:410] inception_5b/relu_5x5_p <- inception_5b/5x5
I1220 15:42:00.026252 12423 net.cpp:357] inception_5b/relu_5x5_p -> inception_5b/5x5 (in-place)
I1220 15:42:00.026257 12423 net.cpp:120] Setting up inception_5b/relu_5x5_p
I1220 15:42:00.026262 12423 net.cpp:127] Top shape: 10 128 7 7 (62720)
I1220 15:42:00.026265 12423 layer_factory.hpp:74] Creating layer inception_5b/pool
I1220 15:42:00.026273 12423 net.cpp:90] Creating Layer inception_5b/pool
I1220 15:42:00.026276 12423 net.cpp:410] inception_5b/pool <- inception_5a/output_inception_5a/output_0_split_3
I1220 15:42:00.026281 12423 net.cpp:368] inception_5b/pool -> inception_5b/pool
I1220 15:42:00.026288 12423 net.cpp:120] Setting up inception_5b/pool
I1220 15:42:00.026294 12423 net.cpp:127] Top shape: 10 832 7 7 (407680)
I1220 15:42:00.026298 12423 layer_factory.hpp:74] Creating layer inception_5b/pool_proj
I1220 15:42:00.026305 12423 net.cpp:90] Creating Layer inception_5b/pool_proj
I1220 15:42:00.026309 12423 net.cpp:410] inception_5b/pool_proj <- inception_5b/pool
I1220 15:42:00.026314 12423 net.cpp:368] inception_5b/pool_proj -> inception_5b/pool_proj
I1220 15:42:00.026320 12423 net.cpp:120] Setting up inception_5b/pool_proj
I1220 15:42:00.027036 12423 net.cpp:127] Top shape: 10 128 7 7 (62720)
I1220 15:42:00.027045 12423 layer_factory.hpp:74] Creating layer inception_5b/relu_pool_proj_p
I1220 15:42:00.027050 12423 net.cpp:90] Creating Layer inception_5b/relu_pool_proj_p
I1220 15:42:00.027053 12423 net.cpp:410] inception_5b/relu_pool_proj_p <- inception_5b/pool_proj
I1220 15:42:00.027060 12423 net.cpp:357] inception_5b/relu_pool_proj_p -> inception_5b/pool_proj (in-place)
I1220 15:42:00.027065 12423 net.cpp:120] Setting up inception_5b/relu_pool_proj_p
I1220 15:42:00.027070 12423 net.cpp:127] Top shape: 10 128 7 7 (62720)
I1220 15:42:00.027073 12423 layer_factory.hpp:74] Creating layer inception_5b/output
I1220 15:42:00.027078 12423 net.cpp:90] Creating Layer inception_5b/output
I1220 15:42:00.027082 12423 net.cpp:410] inception_5b/output <- inception_5b/1x1
I1220 15:42:00.027087 12423 net.cpp:410] inception_5b/output <- inception_5b/3x3
I1220 15:42:00.027091 12423 net.cpp:410] inception_5b/output <- inception_5b/5x5
I1220 15:42:00.027096 12423 net.cpp:410] inception_5b/output <- inception_5b/pool_proj
I1220 15:42:00.027101 12423 net.cpp:368] inception_5b/output -> inception_5b/output
I1220 15:42:00.027107 12423 net.cpp:120] Setting up inception_5b/output
I1220 15:42:00.027113 12423 net.cpp:127] Top shape: 10 1024 7 7 (501760)
I1220 15:42:00.027117 12423 layer_factory.hpp:74] Creating layer pool5/7x7_s1
I1220 15:42:00.027122 12423 net.cpp:90] Creating Layer pool5/7x7_s1
I1220 15:42:00.027127 12423 net.cpp:410] pool5/7x7_s1 <- inception_5b/output
I1220 15:42:00.027132 12423 net.cpp:368] pool5/7x7_s1 -> pool5/7x7_s1
I1220 15:42:00.027138 12423 net.cpp:120] Setting up pool5/7x7_s1
I1220 15:42:00.027143 12423 net.cpp:127] Top shape: 10 1024 1 1 (10240)
I1220 15:42:00.027148 12423 layer_factory.hpp:74] Creating layer pool5/drop_7x7_s1
I1220 15:42:00.027154 12423 net.cpp:90] Creating Layer pool5/drop_7x7_s1
I1220 15:42:00.027161 12423 net.cpp:410] pool5/drop_7x7_s1 <- pool5/7x7_s1
I1220 15:42:00.027170 12423 net.cpp:357] pool5/drop_7x7_s1 -> pool5/7x7_s1 (in-place)
I1220 15:42:00.027175 12423 net.cpp:120] Setting up pool5/drop_7x7_s1
I1220 15:42:00.027181 12423 net.cpp:127] Top shape: 10 1024 1 1 (10240)
I1220 15:42:00.027185 12423 layer_factory.hpp:74] Creating layer loss3/classifier_MIT
I1220 15:42:00.027194 12423 net.cpp:90] Creating Layer loss3/classifier_MIT
I1220 15:42:00.027197 12423 net.cpp:410] loss3/classifier_MIT <- pool5/7x7_s1
I1220 15:42:00.027204 12423 net.cpp:368] loss3/classifier_MIT -> loss3/classifier_MIT
I1220 15:42:00.027209 12423 net.cpp:120] Setting up loss3/classifier_MIT
I1220 15:42:00.027673 12423 net.cpp:127] Top shape: 10 67 (670)
I1220 15:42:00.027681 12423 layer_factory.hpp:74] Creating layer loss3/loss3
I1220 15:42:00.027689 12423 net.cpp:90] Creating Layer loss3/loss3
I1220 15:42:00.027694 12423 net.cpp:410] loss3/loss3 <- loss3/classifier_MIT
I1220 15:42:00.027699 12423 net.cpp:410] loss3/loss3 <- label_data_1_split_2
I1220 15:42:00.027704 12423 net.cpp:368] loss3/loss3 -> loss3/loss3
I1220 15:42:00.027711 12423 net.cpp:120] Setting up loss3/loss3
…
I1220 15:42:00.031775 12423 net.cpp:287] The NetState phase (1) differed from the phase (0) specified by a rule in layer data
I1220 15:42:00.032600 12423 net.cpp:42] Initializing net from parameters: 
name: "GoogleNet_places205"
state {
  phase: TEST
}
layer {
  name: "data"
  type: "ImageData"
  top: "data"
  top: "label"
  include {
    phase: TEST
  }
  transform_param {
    crop_size: 224
    mean_file: "/home/tj/tpj/mltask/MIT/MIT_mean.binaryproto"
    multi_view: true
  }
  image_data_param {
    source: "/home/tj/tpj/mltask/MIT/testdata_MIT_256_list_addpre.txt"
    batch_size: 1
  }
}
layer {
  name: "conv1/7x7_s2"
  type: "Convolution"
  bottom: "data"
  top: "conv1/7x7_s2"
  param {
    lr_mult: 1
    decay_mult: 1
  }
  param {
    lr_mult: 2
    decay_mult: 0
  }
  convolution_param {
    num_output: 64
    pad: 3
    kernel_size: 7
    stride: 2
    weight_filler {
      type: "xavier"
      std: 0.1
    }
    bias_filler {
      type: "constant"
      value: 0.2
    }
  }
}
layer {
  name: "conv1/relu_7x7_p"
  type: "ReLU"
  bottom: "conv1/7x7_s2"
  top: "conv1/7x7_s2"
}
layer {
  name: "pool1/3x3_s2"
  type: "Pooling"
  bottom: "conv1/7x7_s2"
  top: "pool1/3x3_s2"
  pooling_param {
    pool: MAX
    kernel_size: 3
    stride: 2
  }
}
layer {
  name: "pool1/norm1"
  type: "LRN"
  bottom: "pool1/3x3_s2"
  top: "pool1/norm1"
  lrn_param {
    local_size: 5
    alpha: 0.0001
    beta: 0.75
  }
}
layer {
  name: "conv2/3x3_reduce"
  type: "Convolution"
  bottom: "pool1/norm1"
  top: "conv2/3x3_reduce"
  param {
    lr_mult: 1
    decay_mult: 1
  }
  param {
    lr_mult: 2
    decay_mult: 0
  }
  convolution_param {
    num_output: 64
    kernel_size: 1
    weight_filler {
      type: "xavier"
      std: 0.1
    }
    bias_filler {
      type: "constant"
      value: 0.2
    }
  }
}
layer {
  name: "conv2/relu_3x3_reduce_p"
  type: "ReLU"
  bottom: "conv2/3x3_reduce"
  top: "conv2/3x3_reduce"
}
layer {
  name: "conv2/3x3"
  type: "Convolution"
  bottom: "conv2/3x3_reduce"
  top: "conv2/3x3"
  param {
    lr_mult: 1
    decay_mult: 1
  }
  param {
    lr_mult: 2
    decay_mult: 0
  }
  convolution_param {
    num_output: 192
    pad: 1
    kernel_size: 3
    weight_filler {
      type: "xavier"
      std: 0.03
    }
    bias_filler {
      type: "constant"
      value: 0.2
    }
  }
}
layer {
  name: "conv2/relu_3x3_p"
  type: "ReLU"
  bottom: "conv2/3x3"
  top: "conv2/3x3"
}
layer {
  name: "conv2/norm2"
  type: "LRN"
  bottom: "conv2/3x3"
  top: "conv2/norm2"
  lrn_param {
    local_size: 5
    alpha: 0.0001
    beta: 0.75
  }
}
layer {
  name: "pool2/3x3_s2"
  type: "Pooling"
  bottom: "conv2/norm2"
  top: "pool2/3x3_s2"
  pooling_param {
    pool: MAX
    kernel_size: 3
    stride: 2
  }
}
layer {
  name: "inception_3a/1x1"
  type: "Convolution"
  bottom: "pool2/3x3_s2"
  top: "inception_3a/1x1"
  param {
    lr_mult: 1
    decay_mult: 1
  }
  param {
    lr_mult: 2
    decay_mult: 0
  }
  convolution_param {
    num_output: 64
    kernel_size: 1
    weight_filler {
      type: "xavier"
      std: 0.03
    }
    bias_filler {
      type: "constant"
      value: 0.2
    }
  }
}
layer {
  name: "inception_3a/relu_1x1_p"
  type: "ReLU"
  bottom: "inception_3a/1x1"
  top: "inception_3a/1x1"
}
layer {
  name: "inception_3a/3x3_reduce"
  type: "Convolution"
  bottom: "pool2/3x3_s2"
  top: "inception_3a/3x3_reduce"
  param {
    lr_mult: 1
    decay_mult: 1
  }
  param {
    lr_mult: 2
    decay_mult: 0
  }
  convolution_param {
    num_output: 96
    kernel_size: 1
    weight_filler {
      type: "xavier"
      std: 0.09
    }
    bias_filler {
      type: "constant"
      value: 0.2
    }
  }
}
layer {
  name: "inception_3a/relu_3x3_reduce_p"
  type: "ReLU"
  bottom: "inception_3a/3x3_reduce"
  top: "inception_3a/3x3_reduce"
}
layer {
  name: "inception_3a/3x3"
  type: "Convolution"
  bottom: "inception_3a/3x3_reduce"
  top: "inception_3a/3x3"
  param {
    lr_mult: 1
    decay_mult: 1
  }
  param {
    lr_mult: 2
    decay_mult: 0
  }
  convolution_param {
    num_output: 128
    pad: 1
    kernel_size: 3
    weight_filler {
      type: "xavier"
      std: 0.03
    }
    bias_filler {
      type: "constant"
      value: 0.2
    }
  }
}
layer {
  name: "inception_3a/relu_3x3_p"
  type: "ReLU"
  bottom: "inception_3a/3x3"
  top: "inception_3a/3x3"
}
layer {
  name: "inception_3a/5x5_reduce"
  type: "Convolution"
  bottom: "pool2/3x3_s2"
  top: "inception_3a/5x5_reduce"
  param {
    lr_mult: 1
    decay_mult: 1
  }
  param {
    lr_mult: 2
    decay_mult: 0
  }
  convolution_param {
    num_output: 16
    kernel_size: 1
    weight_filler {
      type: "xavier"
      std: 0.2
    }
    bias_filler {
      type: "constant"
      value: 0.2
    }
  }
}
layer {
  name: "inception_3a/relu_5x5_reduce_p"
  type: "ReLU"
  bottom: "inception_3a/5x5_reduce"
  top: "inception_3a/5x5_reduce"
}
layer {
  name: "inception_3a/5x5"
  type: "Convolution"
  bottom: "inception_3a/5x5_reduce"
  top: "inception_3a/5x5"
  param {
    lr_mult: 1
    decay_mult: 1
  }
  param {
    lr_mult: 2
    decay_mult: 0
  }
  convolution_param {
    num_output: 32
    pad: 2
    kernel_size: 5
    weight_filler {
      type: "xavier"
      std: 0.03
    }
    bias_filler {
      type: "constant"
      value: 0.2
    }
  }
}
layer {
  name: "inception_3a/relu_5x5_p"
  type: "ReLU"
  bottom: "inception_3a/5x5"
  top: "inception_3a/5x5"
}
layer {
  name: "inception_3a/pool"
  type: "Pooling"
  bottom: "pool2/3x3_s2"
  top: "inception_3a/pool"
  pooling_param {
    pool: MAX
    kernel_size: 3
    stride: 1
    pad: 1
  }
}
layer {
  name: "inception_3a/pool_proj"
  type: "Convolution"
  bottom: "inception_3a/pool"
  top: "inception_3a/pool_proj"
  param {
    lr_mult: 1
    decay_mult: 1
  }
  param {
    lr_mult: 2
    decay_mult: 0
  }
  convolution_param {
    num_output: 32
    kernel_size: 1
    weight_filler {
      type: "xavier"
      std: 0.1
    }
    bias_filler {
      type: "constant"
      value: 0.2
    }
  }
}
layer {
  name: "inception_3a/relu_pool_proj_p"
  type: "ReLU"
  bottom: "inception_3a/pool_proj"
  top: "inception_3a/pool_proj"
}
layer {
  name: "inception_3a/output"
  type: "Concat"
  bottom: "inception_3a/1x1"
  bottom: "inception_3a/3x3"
  bottom: "inception_3a/5x5"
  bottom: "inception_3a/pool_proj"
  top: "inception_3a/output"
}
layer {
  name: "inception_3b/1x1"
  type: "Convolution"
  bottom: "inception_3a/output"
  top: "inception_3b/1x1"
  param {
    lr_mult: 1
    decay_mult: 1
  }
  param {
    lr_mult: 2
    decay_mult: 0
  }
  convolution_param {
    num_output: 128
    kernel_size: 1
    weight_filler {
      type: "xavier"
      std: 0.03
    }
    bias_filler {
      type: "constant"
      value: 0.2
    }
  }
}
layer {
  name: "inception_3b/relu_1x1_p"
  type: "ReLU"
  bottom: "inception_3b/1x1"
  top: "inception_3b/1x1"
}
layer {
  name: "inception_3b/3x3_reduce"
  type: "Convolution"
  bottom: "inception_3a/output"
  top: "inception_3b/3x3_reduce"
  param {
    lr_mult: 1
    decay_mult: 1
  }
  param {
    lr_mult: 2
    decay_mult: 0
  }
  convolution_param {
    num_output: 128
    kernel_size: 1
    weight_filler {
      type: "xavier"
      std: 0.09
    }
    bias_filler {
      type: "constant"
      value: 0.2
    }
  }
}
layer {
  name: "inception_3b/relu_3x3_reduce_p"
  type: "ReLU"
  bottom: "inception_3b/3x3_reduce"
  top: "inception_3b/3x3_reduce"
}
layer {
  name: "inception_3b/3x3"
  type: "Convolution"
  bottom: "inception_3b/3x3_reduce"
  top: "inception_3b/3x3"
  param {
    lr_mult: 1
    decay_mult: 1
  }
  param {
    lr_mult: 2
    decay_mult: 0
  }
  convolution_param {
    num_output: 192
    pad: 1
    kernel_size: 3
    weight_filler {
      type: "xavier"
      std: 0.03
    }
    bias_filler {
      type: "constant"
      value: 0.2
    }
  }
}
layer {
  name: "inception_3b/relu_3x3_p"
  type: "ReLU"
  bottom: "inception_3b/3x3"
  top: "inception_3b/3x3"
}
layer {
  name: "inception_3b/5x5_reduce"
  type: "Convolution"
  bottom: "inception_3a/output"
  top: "inception_3b/5x5_reduce"
  param {
    lr_mult: 1
    decay_mult: 1
  }
  param {
    lr_mult: 2
    decay_mult: 0
  }
  convolution_param {
    num_output: 32
    kernel_size: 1
    weight_filler {
      type: "xavier"
      std: 0.2
    }
    bias_filler {
      type: "constant"
      value: 0.2
    }
  }
}
layer {
  name: "inception_3b/relu_5x5_reduce_p"
  type: "ReLU"
  bottom: "inception_3b/5x5_reduce"
  top: "inception_3b/5x5_reduce"
}
layer {
  name: "inception_3b/5x5"
  type: "Convolution"
  bottom: "inception_3b/5x5_reduce"
  top: "inception_3b/5x5"
  param {
    lr_mult: 1
    decay_mult: 1
  }
  param {
    lr_mult: 2
    decay_mult: 0
  }
  convolution_param {
    num_output: 96
    pad: 2
    kernel_size: 5
    weight_filler {
      type: "xavier"
      std: 0.03
    }
    bias_filler {
      type: "constant"
      value: 0.2
    }
  }
}
layer {
  name: "inception_3b/relu_5x5_p"
  type: "ReLU"
  bottom: "inception_3b/5x5"
  top: "inception_3b/5x5"
}
layer {
  name: "inception_3b/pool"
  type: "Pooling"
  bottom: "inception_3a/output"
  top: "inception_3b/pool"
  pooling_param {
    pool: MAX
    kernel_size: 3
    stride: 1
    pad: 1
  }
}
layer {
  name: "inception_3b/pool_proj"
  type: "Convolution"
  bottom: "inception_3b/pool"
  top: "inception_3b/pool_proj"
  param {
    lr_mult: 1
    decay_mult: 1
  }
  param {
    lr_mult: 2
    decay_mult: 0
  }
  convolution_param {
    num_output: 64
    kernel_size: 1
    weight_filler {
      type: "xavier"
      std: 0.1
    }
    bias_filler {
      type: "constant"
      value: 0.2
    }
  }
}
layer {
  name: "inception_3b/relu_pool_proj_p"
  type: "ReLU"
  bottom: "inception_3b/pool_proj"
  top: "inception_3b/pool_proj"
}
layer {
  name: "inception_3b/output"
  type: "Concat"
  bottom: "inception_3b/1x1"
  bottom: "inception_3b/3x3"
  bottom: "inception_3b/5x5"
  bottom: "inception_3b/pool_proj"
  top: "inception_3b/output"
}
layer {
  name: "pool3/3x3_s2"
  type: "Pooling"
  bottom: "inception_3b/output"
  top: "pool3/3x3_s2"
  pooling_param {
    pool: MAX
    kernel_size: 3
    stride: 2
  }
}
layer {
  name: "inception_4a/1x1"
  type: "Convolution"
  bottom: "pool3/3x3_s2"
  top: "inception_4a/1x1"
  param {
    lr_mult: 1
    decay_mult: 1
  }
  param {
    lr_mult: 2
    decay_mult: 0
  }
  convolution_param {
    num_output: 192
    kernel_size: 1
    weight_filler {
      type: "xavier"
      std: 0.03
    }
    bias_filler {
      type: "constant"
      value: 0.2
    }
  }
}
layer {
  name: "inception_4a/relu_1x1_p"
  type: "ReLU"
  bottom: "inception_4a/1x1"
  top: "inception_4a/1x1"
}
layer {
  name: "inception_4a/3x3_reduce"
  type: "Convolution"
  bottom: "pool3/3x3_s2"
  top: "inception_4a/3x3_reduce"
  param {
    lr_mult: 1
    decay_mult: 1
  }
  param {
    lr_mult: 2
    decay_mult: 0
  }
  convolution_param {
    num_output: 96
    kernel_size: 1
    weight_filler {
      type: "xavier"
      std: 0.09
    }
    bias_filler {
      type: "constant"
      value: 0.2
    }
  }
}
layer {
  name: "inception_4a/relu_3x3_reduce_p"
  type: "ReLU"
  bottom: "inception_4a/3x3_reduce"
  top: "inception_4a/3x3_reduce"
}
layer {
  name: "inception_4a/3x3"
  type: "Convolution"
  bottom: "inception_4a/3x3_reduce"
  top: "inception_4a/3x3"
  param {
    lr_mult: 1
    decay_mult: 1
  }
  param {
    lr_mult: 2
    decay_mult: 0
  }
  convolution_param {
    num_output: 208
    pad: 1
    kernel_size: 3
    weight_filler {
      type: "xavier"
      std: 0.03
    }
    bias_filler {
      type: "constant"
      value: 0.2
    }
  }
}
layer {
  name: "inception_4a/relu_3x3_p"
  type: "ReLU"
  bottom: "inception_4a/3x3"
  top: "inception_4a/3x3"
}
layer {
  name: "inception_4a/5x5_reduce"
  type: "Convolution"
  bottom: "pool3/3x3_s2"
  top: "inception_4a/5x5_reduce"
  param {
    lr_mult: 1
    decay_mult: 1
  }
  param {
    lr_mult: 2
    decay_mult: 0
  }
  convolution_param {
    num_output: 16
    kernel_size: 1
    weight_filler {
      type: "xavier"
      std: 0.2
    }
    bias_filler {
      type: "constant"
      value: 0.2
    }
  }
}
layer {
  name: "inception_4a/relu_5x5_reduce_p"
  type: "ReLU"
  bottom: "inception_4a/5x5_reduce"
  top: "inception_4a/5x5_reduce"
}
layer {
  name: "inception_4a/5x5"
  type: "Convolution"
  bottom: "inception_4a/5x5_reduce"
  top: "inception_4a/5x5"
  param {
    lr_mult: 1
    decay_mult: 1
  }
  param {
    lr_mult: 2
    decay_mult: 0
  }
  convolution_param {
    num_output: 48
    pad: 2
    kernel_size: 5
    weight_filler {
      type: "xavier"
      std: 0.03
    }
    bias_filler {
      type: "constant"
      value: 0.2
    }
  }
}
layer {
  name: "inception_4a/relu_5x5_p"
  type: "ReLU"
  bottom: "inception_4a/5x5"
  top: "inception_4a/5x5"
}
layer {
  name: "inception_4a/pool"
  type: "Pooling"
  bottom: "pool3/3x3_s2"
  top: "inception_4a/pool"
  pooling_param {
    pool: MAX
    kernel_size: 3
    stride: 1
    pad: 1
  }
}
layer {
  name: "inception_4a/pool_proj"
  type: "Convolution"
  bottom: "inception_4a/pool"
  top: "inception_4a/pool_proj"
  param {
    lr_mult: 1
    decay_mult: 1
  }
  param {
    lr_mult: 2
    decay_mult: 0
  }
  convolution_param {
    num_output: 64
    kernel_size: 1
    weight_filler {
      type: "xavier"
      std: 0.1
    }
    bias_filler {
      type: "constant"
      value: 0.2
    }
  }
}
layer {
  name: "inception_4a/relu_pool_proj_p"
  type: "ReLU"
  bottom: "inception_4a/pool_proj"
  top: "inception_4a/pool_proj"
}
layer {
  name: "inception_4a/output"
  type: "Concat"
  bottom: "inception_4a/1x1"
  bottom: "inception_4a/3x3"
  bottom: "inception_4a/5x5"
  bottom: "inception_4a/pool_proj"
  top: "inception_4a/output"
}
layer {
  name: "loss1/ave_pool"
  type: "Pooling"
  bottom: "inception_4a/output"
  top: "loss1/ave_pool"
  pooling_param {
    pool: AVE
    kernel_size: 5
    stride: 3
  }
}
layer {
  name: "loss1/conv"
  type: "Convolution"
  bottom: "loss1/ave_pool"
  top: "loss1/conv"
  param {
    lr_mult: 1
    decay_mult: 1
  }
  param {
    lr_mult: 2
    decay_mult: 0
  }
  convolution_param {
    num_output: 128
    kernel_size: 1
    weight_filler {
      type: "xavier"
      std: 0.08
    }
    bias_filler {
      type: "constant"
      value: 0.2
    }
  }
}
layer {
  name: "loss1/relu_conv_p"
  type: "ReLU"
  bottom: "loss1/conv"
  top: "loss1/conv"
}
layer {
  name: "loss1/fc"
  type: "InnerProduct"
  bottom: "loss1/conv"
  top: "loss1/fc"
  param {
    lr_mult: 1
    decay_mult: 1
  }
  param {
    lr_mult: 2
    decay_mult: 0
  }
  inner_product_param {
    num_output: 1024
    weight_filler {
      type: "xavier"
      std: 0.02
    }
    bias_filler {
      type: "constant"
      value: 0.2
    }
  }
}
layer {
  name: "loss1/relu_fc_p"
  type: "ReLU"
  bottom: "loss1/fc"
  top: "loss1/fc"
}
layer {
  name: "loss1/drop_fc"
  type: "Dropout"
  bottom: "loss1/fc"
  top: "loss1/fc"
  dropout_param {
    dropout_ratio: 0.7
  }
}
layer {
  name: "loss1/classifier_MIT"
  type: "InnerProduct"
  bottom: "loss1/fc"
  top: "loss1/classifier_MIT"
  param {
    lr_mult: 1
    decay_mult: 1
  }
  param {
    lr_mult: 2
    decay_mult: 0
  }
  inner_product_param {
    num_output: 67
    weight_filler {
      type: "xavier"
      std: 0.0009765625
    }
    bias_filler {
      type: "constant"
      value: 0
    }
  }
}
layer {
  name: "loss1/loss"
  type: "SoftmaxWithLoss"
  bottom: "loss1/classifier_MIT"
  bottom: "label"
  top: "loss1/loss1"
  loss_weight: 0.3
}
layer {
  name: "loss1/top-1"
  type: "Accuracy"
  bottom: "loss1/classifier_MIT"
  bottom: "label"
  top: "loss1/top-1"
  include {
    phase: TEST
  }
}
layer {
  name: "inception_4b/1x1"
  type: "Convolution"
  bottom: "inception_4a/output"
  top: "inception_4b/1x1"
  param {
    lr_mult: 1
    decay_mult: 1
  }
  param {
    lr_mult: 2
    decay_mult: 0
  }
  convolution_param {
    num_output: 160
    kernel_size: 1
    weight_filler {
      type: "xavier"
      std: 0.03
    }
    bias_filler {
      type: "constant"
      value: 0.2
    }
  }
}
layer {
  name: "inception_4b/relu_1x1_p"
  type: "ReLU"
  bottom: "inception_4b/1x1"
  top: "inception_4b/1x1"
}
layer {
  name: "inception_4b/3x3_reduce"
  type: "Convolution"
  bottom: "inception_4a/output"
  top: "inception_4b/3x3_reduce"
  param {
    lr_mult: 1
    decay_mult: 1
  }
  param {
    lr_mult: 2
    decay_mult: 0
  }
  convolution_param {
    num_output: 112
    kernel_size: 1
    weight_filler {
      type: "xavier"
      std: 0.09
    }
    bias_filler {
      type: "constant"
      value: 0.2
    }
  }
}
layer {
  name: "inception_4b/relu_3x3_reduce_p"
  type: "ReLU"
  bottom: "inception_4b/3x3_reduce"
  top: "inception_4b/3x3_reduce"
}
layer {
  name: "inception_4b/3x3"
  type: "Convolution"
  bottom: "inception_4b/3x3_reduce"
  top: "inception_4b/3x3"
  param {
    lr_mult: 1
    decay_mult: 1
  }
  param {
    lr_mult: 2
    decay_mult: 0
  }
  convolution_param {
    num_output: 224
    pad: 1
    kernel_size: 3
    weight_filler {
      type: "xavier"
      std: 0.03
    }
    bias_filler {
      type: "constant"
      value: 0.2
    }
  }
}
layer {
  name: "inception_4b/relu_3x3_p"
  type: "ReLU"
  bottom: "inception_4b/3x3"
  top: "inception_4b/3x3"
}
layer {
  name: "inception_4b/5x5_reduce"
  type: "Convolution"
  bottom: "inception_4a/output"
  top: "inception_4b/5x5_reduce"
  param {
    lr_mult: 1
    decay_mult: 1
  }
  param {
    lr_mult: 2
    decay_mult: 0
  }
  convolution_param {
    num_output: 24
    kernel_size: 1
    weight_filler {
      type: "xavier"
      std: 0.2
    }
    bias_filler {
      type: "constant"
      value: 0.2
    }
  }
}
layer {
  name: "inception_4b/relu_5x5_reduce_p"
  type: "ReLU"
  bottom: "inception_4b/5x5_reduce"
  top: "inception_4b/5x5_reduce"
}
layer {
  name: "inception_4b/5x5"
  type: "Convolution"
  bottom: "inception_4b/5x5_reduce"
  top: "inception_4b/5x5"
  param {
    lr_mult: 1
    decay_mult: 1
  }
  param {
    lr_mult: 2
    decay_mult: 0
  }
  convolution_param {
    num_output: 64
    pad: 2
    kernel_size: 5
    weight_filler {
      type: "xavier"
      std: 0.03
    }
    bias_filler {
      type: "constant"
      value: 0.2
    }
  }
}
layer {
  name: "inception_4b/relu_5x5_p"
  type: "ReLU"
  bottom: "inception_4b/5x5"
  top: "inception_4b/5x5"
}
layer {
  name: "inception_4b/pool"
  type: "Pooling"
  bottom: "inception_4a/output"
  top: "inception_4b/pool"
  pooling_param {
    pool: MAX
    kernel_size: 3
    stride: 1
    pad: 1
  }
}
layer {
  name: "inception_4b/pool_proj"
  type: "Convolution"
  bottom: "inception_4b/pool"
  top: "inception_4b/pool_proj"
  param {
    lr_mult: 1
    decay_mult: 1
  }
  param {
    lr_mult: 2
    decay_mult: 0
  }
  convolution_param {
    num_output: 64
    kernel_size: 1
    weight_filler {
      type: "xavier"
      std: 0.1
    }
    bias_filler {
      type: "constant"
      value: 0.2
    }
  }
}
layer {
  name: "inception_4b/relu_pool_proj_p"
  type: "ReLU"
  bottom: "inception_4b/pool_proj"
  top: "inception_4b/pool_proj"
}
layer {
  name: "inception_4b/output"
  type: "Concat"
  bottom: "inception_4b/1x1"
  bottom: "inception_4b/3x3"
  bottom: "inception_4b/5x5"
  bottom: "inception_4b/pool_proj"
  top: "inception_4b/output"
}
layer {
  name: "inception_4c/1x1"
  type: "Convolution"
  bottom: "inception_4b/output"
  top: "inception_4c/1x1"
  param {
    lr_mult: 1
    decay_mult: 1
  }
  param {
    lr_mult: 2
    decay_mult: 0
  }
  convolution_param {
    num_output: 128
    kernel_size: 1
    weight_filler {
      type: "xavier"
      std: 0.03
    }
    bias_filler {
      type: "constant"
      value: 0.2
    }
  }
}
layer {
  name: "inception_4c/relu_1x1_p"
  type: "ReLU"
  bottom: "inception_4c/1x1"
  top: "inception_4c/1x1"
}
layer {
  name: "inception_4c/3x3_reduce"
  type: "Convolution"
  bottom: "inception_4b/output"
  top: "inception_4c/3x3_reduce"
  param {
    lr_mult: 1
    decay_mult: 1
  }
  param {
    lr_mult: 2
    decay_mult: 0
  }
  convolution_param {
    num_output: 128
    kernel_size: 1
    weight_filler {
      type: "xavier"
      std: 0.09
    }
    bias_filler {
      type: "constant"
      value: 0.2
    }
  }
}
layer {
  name: "inception_4c/relu_3x3_reduce_p"
  type: "ReLU"
  bottom: "inception_4c/3x3_reduce"
  top: "inception_4c/3x3_reduce"
}
layer {
  name: "inception_4c/3x3"
  type: "Convolution"
  bottom: "inception_4c/3x3_reduce"
  top: "inception_4c/3x3"
  param {
    lr_mult: 1
    decay_mult: 1
  }
  param {
    lr_mult: 2
    decay_mult: 0
  }
  convolution_param {
    num_output: 256
    pad: 1
    kernel_size: 3
    weight_filler {
      type: "xavier"
      std: 0.03
    }
    bias_filler {
      type: "constant"
      value: 0.2
    }
  }
}
layer {
  name: "inception_4c/relu_3x3_p"
  type: "ReLU"
  bottom: "inception_4c/3x3"
  top: "inception_4c/3x3"
}
layer {
  name: "inception_4c/5x5_reduce"
  type: "Convolution"
  bottom: "inception_4b/output"
  top: "inception_4c/5x5_reduce"
  param {
    lr_mult: 1
    decay_mult: 1
  }
  param {
    lr_mult: 2
    decay_mult: 0
  }
  convolution_param {
    num_output: 24
    kernel_size: 1
    weight_filler {
      type: "xavier"
      std: 0.2
    }
    bias_filler {
      type: "constant"
      value: 0.2
    }
  }
}
layer {
  name: "inception_4c/relu_5x5_reduce_p"
  type: "ReLU"
  bottom: "inception_4c/5x5_reduce"
  top: "inception_4c/5x5_reduce"
}
layer {
  name: "inception_4c/5x5"
  type: "Convolution"
  bottom: "inception_4c/5x5_reduce"
  top: "inception_4c/5x5"
  param {
    lr_mult: 1
    decay_mult: 1
  }
  param {
    lr_mult: 2
    decay_mult: 0
  }
  convolution_param {
    num_output: 64
    pad: 2
    kernel_size: 5
    weight_filler {
      type: "xavier"
      std: 0.03
    }
    bias_filler {
      type: "constant"
      value: 0.2
    }
  }
}
layer {
  name: "inception_4c/relu_5x5_p"
  type: "ReLU"
  bottom: "inception_4c/5x5"
  top: "inception_4c/5x5"
}
layer {
  name: "inception_4c/pool"
  type: "Pooling"
  bottom: "inception_4b/output"
  top: "inception_4c/pool"
  pooling_param {
    pool: MAX
    kernel_size: 3
    stride: 1
    pad: 1
  }
}
layer {
  name: "inception_4c/pool_proj"
  type: "Convolution"
  bottom: "inception_4c/pool"
  top: "inception_4c/pool_proj"
  param {
    lr_mult: 1
    decay_mult: 1
  }
  param {
    lr_mult: 2
    decay_mult: 0
  }
  convolution_param {
    num_output: 64
    kernel_size: 1
    weight_filler {
      type: "xavier"
      std: 0.1
    }
    bias_filler {
      type: "constant"
      value: 0.2
    }
  }
}
layer {
  name: "inception_4c/relu_pool_proj_p"
  type: "ReLU"
  bottom: "inception_4c/pool_proj"
  top: "inception_4c/pool_proj"
}
layer {
  name: "inception_4c/output"
  type: "Concat"
  bottom: "inception_4c/1x1"
  bottom: "inception_4c/3x3"
  bottom: "inception_4c/5x5"
  bottom: "inception_4c/pool_proj"
  top: "inception_4c/output"
}
layer {
  name: "inception_4d/1x1"
  type: "Convolution"
  bottom: "inception_4c/output"
  top: "inception_4d/1x1"
  param {
    lr_mult: 1
    decay_mult: 1
  }
  param {
    lr_mult: 2
    decay_mult: 0
  }
  convolution_param {
    num_output: 112
    kernel_size: 1
    weight_filler {
      type: "xavier"
      std: 0.03
    }
    bias_filler {
      type: "constant"
      value: 0.2
    }
  }
}
layer {
  name: "inception_4d/relu_1x1_p"
  type: "ReLU"
  bottom: "inception_4d/1x1"
  top: "inception_4d/1x1"
}
layer {
  name: "inception_4d/3x3_reduce"
  type: "Convolution"
  bottom: "inception_4c/output"
  top: "inception_4d/3x3_reduce"
  param {
    lr_mult: 1
    decay_mult: 1
  }
  param {
    lr_mult: 2
    decay_mult: 0
  }
  convolution_param {
    num_output: 144
    kernel_size: 1
    weight_filler {
      type: "xavier"
      std: 0.09
    }
    bias_filler {
      type: "constant"
      value: 0.2
    }
  }
}
layer {
  name: "inception_4d/relu_3x3_reduce_p"
  type: "ReLU"
  bottom: "inception_4d/3x3_reduce"
  top: "inception_4d/3x3_reduce"
}
layer {
  name: "inception_4d/3x3"
  type: "Convolution"
  bottom: "inception_4d/3x3_reduce"
  top: "inception_4d/3x3"
  param {
    lr_mult: 1
    decay_mult: 1
  }
  param {
    lr_mult: 2
    decay_mult: 0
  }
  convolution_param {
    num_output: 288
    pad: 1
    kernel_size: 3
    weight_filler {
      type: "xavier"
      std: 0.03
    }
    bias_filler {
      type: "constant"
      value: 0.2
    }
  }
}
layer {
  name: "inception_4d/relu_3x3_p"
  type: "ReLU"
  bottom: "inception_4d/3x3"
  top: "inception_4d/3x3"
}
layer {
  name: "inception_4d/5x5_reduce"
  type: "Convolution"
  bottom: "inception_4c/output"
  top: "inception_4d/5x5_reduce"
  param {
    lr_mult: 1
    decay_mult: 1
  }
  param {
    lr_mult: 2
    decay_mult: 0
  }
  convolution_param {
    num_output: 32
    kernel_size: 1
    weight_filler {
      type: "xavier"
      std: 0.2
    }
    bias_filler {
      type: "constant"
      value: 0.2
    }
  }
}
layer {
  name: "inception_4d/relu_5x5_reduce_p"
  type: "ReLU"
  bottom: "inception_4d/5x5_reduce"
  top: "inception_4d/5x5_reduce"
}
layer {
  name: "inception_4d/5x5"
  type: "Convolution"
  bottom: "inception_4d/5x5_reduce"
  top: "inception_4d/5x5"
  param {
    lr_mult: 1
    decay_mult: 1
  }
  param {
    lr_mult: 2
    decay_mult: 0
  }
  convolution_param {
    num_output: 64
    pad: 2
    kernel_size: 5
    weight_filler {
      type: "xavier"
      std: 0.03
    }
    bias_filler {
      type: "constant"
      value: 0.2
    }
  }
}
layer {
  name: "inception_4d/relu_5x5_p"
  type: "ReLU"
  bottom: "inception_4d/5x5"
  top: "inception_4d/5x5"
}
layer {
  name: "inception_4d/pool"
  type: "Pooling"
  bottom: "inception_4c/output"
  top: "inception_4d/pool"
  pooling_param {
    pool: MAX
    kernel_size: 3
    stride: 1
    pad: 1
  }
}
layer {
  name: "inception_4d/pool_proj"
  type: "Convolution"
  bottom: "inception_4d/pool"
  top: "inception_4d/pool_proj"
  param {
    lr_mult: 1
    decay_mult: 1
  }
  param {
    lr_mult: 2
    decay_mult: 0
  }
  convolution_param {
    num_output: 64
    kernel_size: 1
    weight_filler {
      type: "xavier"
      std: 0.1
    }
    bias_filler {
      type: "constant"
      value: 0.2
    }
  }
}
layer {
  name: "inception_4d/relu_pool_proj_p"
  type: "ReLU"
  bottom: "inception_4d/pool_proj"
  top: "inception_4d/pool_proj"
}
layer {
  name: "inception_4d/output"
  type: "Concat"
  bottom: "inception_4d/1x1"
  bottom: "inception_4d/3x3"
  bottom: "inception_4d/5x5"
  bottom: "inception_4d/pool_proj"
  top: "inception_4d/output"
}
layer {
  name: "loss2/ave_pool"
  type: "Pooling"
  bottom: "inception_4d/output"
  top: "loss2/ave_pool"
  pooling_param {
    pool: AVE
    kernel_size: 5
    stride: 3
  }
}
layer {
  name: "loss2/conv"
  type: "Convolution"
  bottom: "loss2/ave_pool"
  top: "loss2/conv"
  param {
    lr_mult: 1
    decay_mult: 1
  }
  param {
    lr_mult: 2
    decay_mult: 0
  }
  convolution_param {
…
I1220 15:42:00.079471 12423 net.cpp:90] Creating Layer inception_4b/output_inception_4b/output_0_split
I1220 15:42:00.079475 12423 net.cpp:410] inception_4b/output_inception_4b/output_0_split <- inception_4b/output
I1220 15:42:00.079480 12423 net.cpp:368] inception_4b/output_inception_4b/output_0_split -> inception_4b/output_inception_4b/output_0_split_0
I1220 15:42:00.079488 12423 net.cpp:368] inception_4b/output_inception_4b/output_0_split -> inception_4b/output_inception_4b/output_0_split_1
I1220 15:42:00.079494 12423 net.cpp:368] inception_4b/output_inception_4b/output_0_split -> inception_4b/output_inception_4b/output_0_split_2
I1220 15:42:00.079500 12423 net.cpp:368] inception_4b/output_inception_4b/output_0_split -> inception_4b/output_inception_4b/output_0_split_3
I1220 15:42:00.079511 12423 net.cpp:120] Setting up inception_4b/output_inception_4b/output_0_split
I1220 15:42:00.079517 12423 net.cpp:127] Top shape: 1 512 14 14 (100352)
I1220 15:42:00.079521 12423 net.cpp:127] Top shape: 1 512 14 14 (100352)
I1220 15:42:00.079526 12423 net.cpp:127] Top shape: 1 512 14 14 (100352)
I1220 15:42:00.079530 12423 net.cpp:127] Top shape: 1 512 14 14 (100352)
I1220 15:42:00.079533 12423 layer_factory.hpp:74] Creating layer inception_4c/1x1
I1220 15:42:00.079540 12423 net.cpp:90] Creating Layer inception_4c/1x1
I1220 15:42:00.079545 12423 net.cpp:410] inception_4c/1x1 <- inception_4b/output_inception_4b/output_0_split_0
I1220 15:42:00.079550 12423 net.cpp:368] inception_4c/1x1 -> inception_4c/1x1
I1220 15:42:00.079555 12423 net.cpp:120] Setting up inception_4c/1x1
I1220 15:42:00.079999 12423 net.cpp:127] Top shape: 1 128 14 14 (25088)
I1220 15:42:00.080008 12423 layer_factory.hpp:74] Creating layer inception_4c/relu_1x1_p
I1220 15:42:00.080013 12423 net.cpp:90] Creating Layer inception_4c/relu_1x1_p
I1220 15:42:00.080016 12423 net.cpp:410] inception_4c/relu_1x1_p <- inception_4c/1x1
I1220 15:42:00.080020 12423 net.cpp:357] inception_4c/relu_1x1_p -> inception_4c/1x1 (in-place)
I1220 15:42:00.080026 12423 net.cpp:120] Setting up inception_4c/relu_1x1_p
I1220 15:42:00.080030 12423 net.cpp:127] Top shape: 1 128 14 14 (25088)
I1220 15:42:00.080034 12423 layer_factory.hpp:74] Creating layer inception_4c/3x3_reduce
I1220 15:42:00.080040 12423 net.cpp:90] Creating Layer inception_4c/3x3_reduce
I1220 15:42:00.080045 12423 net.cpp:410] inception_4c/3x3_reduce <- inception_4b/output_inception_4b/output_0_split_1
I1220 15:42:00.080050 12423 net.cpp:368] inception_4c/3x3_reduce -> inception_4c/3x3_reduce
I1220 15:42:00.080055 12423 net.cpp:120] Setting up inception_4c/3x3_reduce
I1220 15:42:00.080530 12423 net.cpp:127] Top shape: 1 128 14 14 (25088)
I1220 15:42:00.080539 12423 layer_factory.hpp:74] Creating layer inception_4c/relu_3x3_reduce_p
I1220 15:42:00.080546 12423 net.cpp:90] Creating Layer inception_4c/relu_3x3_reduce_p
I1220 15:42:00.080550 12423 net.cpp:410] inception_4c/relu_3x3_reduce_p <- inception_4c/3x3_reduce
I1220 15:42:00.080555 12423 net.cpp:357] inception_4c/relu_3x3_reduce_p -> inception_4c/3x3_reduce (in-place)
I1220 15:42:00.080561 12423 net.cpp:120] Setting up inception_4c/relu_3x3_reduce_p
I1220 15:42:00.080565 12423 net.cpp:127] Top shape: 1 128 14 14 (25088)
I1220 15:42:00.080569 12423 layer_factory.hpp:74] Creating layer inception_4c/3x3
I1220 15:42:00.080576 12423 net.cpp:90] Creating Layer inception_4c/3x3
I1220 15:42:00.080580 12423 net.cpp:410] inception_4c/3x3 <- inception_4c/3x3_reduce
I1220 15:42:00.080585 12423 net.cpp:368] inception_4c/3x3 -> inception_4c/3x3
I1220 15:42:00.080591 12423 net.cpp:120] Setting up inception_4c/3x3
I1220 15:42:00.082592 12423 net.cpp:127] Top shape: 1 256 14 14 (50176)
I1220 15:42:00.082607 12423 layer_factory.hpp:74] Creating layer inception_4c/relu_3x3_p
I1220 15:42:00.082613 12423 net.cpp:90] Creating Layer inception_4c/relu_3x3_p
I1220 15:42:00.082617 12423 net.cpp:410] inception_4c/relu_3x3_p <- inception_4c/3x3
I1220 15:42:00.082623 12423 net.cpp:357] inception_4c/relu_3x3_p -> inception_4c/3x3 (in-place)
I1220 15:42:00.082628 12423 net.cpp:120] Setting up inception_4c/relu_3x3_p
I1220 15:42:00.082633 12423 net.cpp:127] Top shape: 1 256 14 14 (50176)
I1220 15:42:00.082636 12423 layer_factory.hpp:74] Creating layer inception_4c/5x5_reduce
I1220 15:42:00.082643 12423 net.cpp:90] Creating Layer inception_4c/5x5_reduce
I1220 15:42:00.082646 12423 net.cpp:410] inception_4c/5x5_reduce <- inception_4b/output_inception_4b/output_0_split_2
I1220 15:42:00.082653 12423 net.cpp:368] inception_4c/5x5_reduce -> inception_4c/5x5_reduce
I1220 15:42:00.082658 12423 net.cpp:120] Setting up inception_4c/5x5_reduce
I1220 15:42:00.082746 12423 net.cpp:127] Top shape: 1 24 14 14 (4704)
I1220 15:42:00.082751 12423 layer_factory.hpp:74] Creating layer inception_4c/relu_5x5_reduce_p
I1220 15:42:00.082759 12423 net.cpp:90] Creating Layer inception_4c/relu_5x5_reduce_p
I1220 15:42:00.082768 12423 net.cpp:410] inception_4c/relu_5x5_reduce_p <- inception_4c/5x5_reduce
I1220 15:42:00.082773 12423 net.cpp:357] inception_4c/relu_5x5_reduce_p -> inception_4c/5x5_reduce (in-place)
I1220 15:42:00.082778 12423 net.cpp:120] Setting up inception_4c/relu_5x5_reduce_p
I1220 15:42:00.082783 12423 net.cpp:127] Top shape: 1 24 14 14 (4704)
I1220 15:42:00.082787 12423 layer_factory.hpp:74] Creating layer inception_4c/5x5
I1220 15:42:00.082792 12423 net.cpp:90] Creating Layer inception_4c/5x5
I1220 15:42:00.082797 12423 net.cpp:410] inception_4c/5x5 <- inception_4c/5x5_reduce
I1220 15:42:00.082803 12423 net.cpp:368] inception_4c/5x5 -> inception_4c/5x5
I1220 15:42:00.082808 12423 net.cpp:120] Setting up inception_4c/5x5
I1220 15:42:00.083075 12423 net.cpp:127] Top shape: 1 64 14 14 (12544)
I1220 15:42:00.083081 12423 layer_factory.hpp:74] Creating layer inception_4c/relu_5x5_p
I1220 15:42:00.083086 12423 net.cpp:90] Creating Layer inception_4c/relu_5x5_p
I1220 15:42:00.083091 12423 net.cpp:410] inception_4c/relu_5x5_p <- inception_4c/5x5
I1220 15:42:00.083096 12423 net.cpp:357] inception_4c/relu_5x5_p -> inception_4c/5x5 (in-place)
I1220 15:42:00.083101 12423 net.cpp:120] Setting up inception_4c/relu_5x5_p
I1220 15:42:00.083106 12423 net.cpp:127] Top shape: 1 64 14 14 (12544)
I1220 15:42:00.083111 12423 layer_factory.hpp:74] Creating layer inception_4c/pool
I1220 15:42:00.083115 12423 net.cpp:90] Creating Layer inception_4c/pool
I1220 15:42:00.083119 12423 net.cpp:410] inception_4c/pool <- inception_4b/output_inception_4b/output_0_split_3
I1220 15:42:00.083124 12423 net.cpp:368] inception_4c/pool -> inception_4c/pool
I1220 15:42:00.083129 12423 net.cpp:120] Setting up inception_4c/pool
I1220 15:42:00.083137 12423 net.cpp:127] Top shape: 1 512 14 14 (100352)
I1220 15:42:00.083139 12423 layer_factory.hpp:74] Creating layer inception_4c/pool_proj
I1220 15:42:00.083147 12423 net.cpp:90] Creating Layer inception_4c/pool_proj
I1220 15:42:00.083150 12423 net.cpp:410] inception_4c/pool_proj <- inception_4c/pool
I1220 15:42:00.083156 12423 net.cpp:368] inception_4c/pool_proj -> inception_4c/pool_proj
I1220 15:42:00.083163 12423 net.cpp:120] Setting up inception_4c/pool_proj
I1220 15:42:00.083387 12423 net.cpp:127] Top shape: 1 64 14 14 (12544)
I1220 15:42:00.083395 12423 layer_factory.hpp:74] Creating layer inception_4c/relu_pool_proj_p
I1220 15:42:00.083400 12423 net.cpp:90] Creating Layer inception_4c/relu_pool_proj_p
I1220 15:42:00.083405 12423 net.cpp:410] inception_4c/relu_pool_proj_p <- inception_4c/pool_proj
I1220 15:42:00.083410 12423 net.cpp:357] inception_4c/relu_pool_proj_p -> inception_4c/pool_proj (in-place)
I1220 15:42:00.083416 12423 net.cpp:120] Setting up inception_4c/relu_pool_proj_p
I1220 15:42:00.083420 12423 net.cpp:127] Top shape: 1 64 14 14 (12544)
I1220 15:42:00.083425 12423 layer_factory.hpp:74] Creating layer inception_4c/output
I1220 15:42:00.083430 12423 net.cpp:90] Creating Layer inception_4c/output
I1220 15:42:00.083433 12423 net.cpp:410] inception_4c/output <- inception_4c/1x1
I1220 15:42:00.083437 12423 net.cpp:410] inception_4c/output <- inception_4c/3x3
I1220 15:42:00.083442 12423 net.cpp:410] inception_4c/output <- inception_4c/5x5
I1220 15:42:00.083446 12423 net.cpp:410] inception_4c/output <- inception_4c/pool_proj
I1220 15:42:00.083451 12423 net.cpp:368] inception_4c/output -> inception_4c/output
I1220 15:42:00.083456 12423 net.cpp:120] Setting up inception_4c/output
I1220 15:42:00.083462 12423 net.cpp:127] Top shape: 1 512 14 14 (100352)
I1220 15:42:00.083466 12423 layer_factory.hpp:74] Creating layer inception_4c/output_inception_4c/output_0_split
I1220 15:42:00.083470 12423 net.cpp:90] Creating Layer inception_4c/output_inception_4c/output_0_split
I1220 15:42:00.083474 12423 net.cpp:410] inception_4c/output_inception_4c/output_0_split <- inception_4c/output
I1220 15:42:00.083480 12423 net.cpp:368] inception_4c/output_inception_4c/output_0_split -> inception_4c/output_inception_4c/output_0_split_0
I1220 15:42:00.083489 12423 net.cpp:368] inception_4c/output_inception_4c/output_0_split -> inception_4c/output_inception_4c/output_0_split_1
I1220 15:42:00.083499 12423 net.cpp:368] inception_4c/output_inception_4c/output_0_split -> inception_4c/output_inception_4c/output_0_split_2
I1220 15:42:00.083505 12423 net.cpp:368] inception_4c/output_inception_4c/output_0_split -> inception_4c/output_inception_4c/output_0_split_3
I1220 15:42:00.083510 12423 net.cpp:120] Setting up inception_4c/output_inception_4c/output_0_split
I1220 15:42:00.083518 12423 net.cpp:127] Top shape: 1 512 14 14 (100352)
I1220 15:42:00.083523 12423 net.cpp:127] Top shape: 1 512 14 14 (100352)
I1220 15:42:00.083526 12423 net.cpp:127] Top shape: 1 512 14 14 (100352)
I1220 15:42:00.083530 12423 net.cpp:127] Top shape: 1 512 14 14 (100352)
I1220 15:42:00.083534 12423 layer_factory.hpp:74] Creating layer inception_4d/1x1
I1220 15:42:00.083539 12423 net.cpp:90] Creating Layer inception_4d/1x1
I1220 15:42:00.083544 12423 net.cpp:410] inception_4d/1x1 <- inception_4c/output_inception_4c/output_0_split_0
I1220 15:42:00.083549 12423 net.cpp:368] inception_4d/1x1 -> inception_4d/1x1
I1220 15:42:00.083555 12423 net.cpp:120] Setting up inception_4d/1x1
I1220 15:42:00.083945 12423 net.cpp:127] Top shape: 1 112 14 14 (21952)
I1220 15:42:00.083951 12423 layer_factory.hpp:74] Creating layer inception_4d/relu_1x1_p
I1220 15:42:00.083956 12423 net.cpp:90] Creating Layer inception_4d/relu_1x1_p
I1220 15:42:00.083961 12423 net.cpp:410] inception_4d/relu_1x1_p <- inception_4d/1x1
I1220 15:42:00.083964 12423 net.cpp:357] inception_4d/relu_1x1_p -> inception_4d/1x1 (in-place)
I1220 15:42:00.083971 12423 net.cpp:120] Setting up inception_4d/relu_1x1_p
I1220 15:42:00.083974 12423 net.cpp:127] Top shape: 1 112 14 14 (21952)
I1220 15:42:00.083978 12423 layer_factory.hpp:74] Creating layer inception_4d/3x3_reduce
I1220 15:42:00.083984 12423 net.cpp:90] Creating Layer inception_4d/3x3_reduce
I1220 15:42:00.083988 12423 net.cpp:410] inception_4d/3x3_reduce <- inception_4c/output_inception_4c/output_0_split_1
I1220 15:42:00.083994 12423 net.cpp:368] inception_4d/3x3_reduce -> inception_4d/3x3_reduce
I1220 15:42:00.084000 12423 net.cpp:120] Setting up inception_4d/3x3_reduce
I1220 15:42:00.084501 12423 net.cpp:127] Top shape: 1 144 14 14 (28224)
I1220 15:42:00.084509 12423 layer_factory.hpp:74] Creating layer inception_4d/relu_3x3_reduce_p
I1220 15:42:00.084516 12423 net.cpp:90] Creating Layer inception_4d/relu_3x3_reduce_p
I1220 15:42:00.084519 12423 net.cpp:410] inception_4d/relu_3x3_reduce_p <- inception_4d/3x3_reduce
I1220 15:42:00.084524 12423 net.cpp:357] inception_4d/relu_3x3_reduce_p -> inception_4d/3x3_reduce (in-place)
I1220 15:42:00.084530 12423 net.cpp:120] Setting up inception_4d/relu_3x3_reduce_p
I1220 15:42:00.084534 12423 net.cpp:127] Top shape: 1 144 14 14 (28224)
I1220 15:42:00.084538 12423 layer_factory.hpp:74] Creating layer inception_4d/3x3
I1220 15:42:00.084543 12423 net.cpp:90] Creating Layer inception_4d/3x3
I1220 15:42:00.084547 12423 net.cpp:410] inception_4d/3x3 <- inception_4d/3x3_reduce
I1220 15:42:00.084553 12423 net.cpp:368] inception_4d/3x3 -> inception_4d/3x3
I1220 15:42:00.084558 12423 net.cpp:120] Setting up inception_4d/3x3
I1220 15:42:00.087061 12423 net.cpp:127] Top shape: 1 288 14 14 (56448)
I1220 15:42:00.087069 12423 layer_factory.hpp:74] Creating layer inception_4d/relu_3x3_p
I1220 15:42:00.087074 12423 net.cpp:90] Creating Layer inception_4d/relu_3x3_p
I1220 15:42:00.087080 12423 net.cpp:410] inception_4d/relu_3x3_p <- inception_4d/3x3
I1220 15:42:00.087085 12423 net.cpp:357] inception_4d/relu_3x3_p -> inception_4d/3x3 (in-place)
I1220 15:42:00.087090 12423 net.cpp:120] Setting up inception_4d/relu_3x3_p
I1220 15:42:00.087095 12423 net.cpp:127] Top shape: 1 288 14 14 (56448)
I1220 15:42:00.087098 12423 layer_factory.hpp:74] Creating layer inception_4d/5x5_reduce
I1220 15:42:00.087103 12423 net.cpp:90] Creating Layer inception_4d/5x5_reduce
I1220 15:42:00.087107 12423 net.cpp:410] inception_4d/5x5_reduce <- inception_4c/output_inception_4c/output_0_split_2
I1220 15:42:00.087119 12423 net.cpp:368] inception_4d/5x5_reduce -> inception_4d/5x5_reduce
I1220 15:42:00.087131 12423 net.cpp:120] Setting up inception_4d/5x5_reduce
I1220 15:42:00.087247 12423 net.cpp:127] Top shape: 1 32 14 14 (6272)
I1220 15:42:00.087254 12423 layer_factory.hpp:74] Creating layer inception_4d/relu_5x5_reduce_p
I1220 15:42:00.087260 12423 net.cpp:90] Creating Layer inception_4d/relu_5x5_reduce_p
I1220 15:42:00.087263 12423 net.cpp:410] inception_4d/relu_5x5_reduce_p <- inception_4d/5x5_reduce
I1220 15:42:00.087268 12423 net.cpp:357] inception_4d/relu_5x5_reduce_p -> inception_4d/5x5_reduce (in-place)
I1220 15:42:00.087273 12423 net.cpp:120] Setting up inception_4d/relu_5x5_reduce_p
I1220 15:42:00.087278 12423 net.cpp:127] Top shape: 1 32 14 14 (6272)
I1220 15:42:00.087281 12423 layer_factory.hpp:74] Creating layer inception_4d/5x5
I1220 15:42:00.087287 12423 net.cpp:90] Creating Layer inception_4d/5x5
I1220 15:42:00.087291 12423 net.cpp:410] inception_4d/5x5 <- inception_4d/5x5_reduce
I1220 15:42:00.087297 12423 net.cpp:368] inception_4d/5x5 -> inception_4d/5x5
I1220 15:42:00.087302 12423 net.cpp:120] Setting up inception_4d/5x5
I1220 15:42:00.087656 12423 net.cpp:127] Top shape: 1 64 14 14 (12544)
I1220 15:42:00.087663 12423 layer_factory.hpp:74] Creating layer inception_4d/relu_5x5_p
I1220 15:42:00.087668 12423 net.cpp:90] Creating Layer inception_4d/relu_5x5_p
I1220 15:42:00.087672 12423 net.cpp:410] inception_4d/relu_5x5_p <- inception_4d/5x5
I1220 15:42:00.087677 12423 net.cpp:357] inception_4d/relu_5x5_p -> inception_4d/5x5 (in-place)
I1220 15:42:00.087682 12423 net.cpp:120] Setting up inception_4d/relu_5x5_p
I1220 15:42:00.087687 12423 net.cpp:127] Top shape: 1 64 14 14 (12544)
I1220 15:42:00.087689 12423 layer_factory.hpp:74] Creating layer inception_4d/pool
I1220 15:42:00.087694 12423 net.cpp:90] Creating Layer inception_4d/pool
I1220 15:42:00.087699 12423 net.cpp:410] inception_4d/pool <- inception_4c/output_inception_4c/output_0_split_3
I1220 15:42:00.087705 12423 net.cpp:368] inception_4d/pool -> inception_4d/pool
I1220 15:42:00.087710 12423 net.cpp:120] Setting up inception_4d/pool
I1220 15:42:00.087718 12423 net.cpp:127] Top shape: 1 512 14 14 (100352)
I1220 15:42:00.087720 12423 layer_factory.hpp:74] Creating layer inception_4d/pool_proj
I1220 15:42:00.087728 12423 net.cpp:90] Creating Layer inception_4d/pool_proj
I1220 15:42:00.087733 12423 net.cpp:410] inception_4d/pool_proj <- inception_4d/pool
I1220 15:42:00.087738 12423 net.cpp:368] inception_4d/pool_proj -> inception_4d/pool_proj
I1220 15:42:00.087743 12423 net.cpp:120] Setting up inception_4d/pool_proj
I1220 15:42:00.087970 12423 net.cpp:127] Top shape: 1 64 14 14 (12544)
I1220 15:42:00.087975 12423 layer_factory.hpp:74] Creating layer inception_4d/relu_pool_proj_p
I1220 15:42:00.087980 12423 net.cpp:90] Creating Layer inception_4d/relu_pool_proj_p
I1220 15:42:00.087985 12423 net.cpp:410] inception_4d/relu_pool_proj_p <- inception_4d/pool_proj
I1220 15:42:00.087992 12423 net.cpp:357] inception_4d/relu_pool_proj_p -> inception_4d/pool_proj (in-place)
I1220 15:42:00.087997 12423 net.cpp:120] Setting up inception_4d/relu_pool_proj_p
I1220 15:42:00.088002 12423 net.cpp:127] Top shape: 1 64 14 14 (12544)
I1220 15:42:00.088006 12423 layer_factory.hpp:74] Creating layer inception_4d/output
I1220 15:42:00.088011 12423 net.cpp:90] Creating Layer inception_4d/output
I1220 15:42:00.088014 12423 net.cpp:410] inception_4d/output <- inception_4d/1x1
I1220 15:42:00.088019 12423 net.cpp:410] inception_4d/output <- inception_4d/3x3
I1220 15:42:00.088023 12423 net.cpp:410] inception_4d/output <- inception_4d/5x5
I1220 15:42:00.088028 12423 net.cpp:410] inception_4d/output <- inception_4d/pool_proj
I1220 15:42:00.088032 12423 net.cpp:368] inception_4d/output -> inception_4d/output
I1220 15:42:00.088037 12423 net.cpp:120] Setting up inception_4d/output
I1220 15:42:00.088043 12423 net.cpp:127] Top shape: 1 528 14 14 (103488)
I1220 15:42:00.088047 12423 layer_factory.hpp:74] Creating layer inception_4d/output_inception_4d/output_0_split
I1220 15:42:00.088057 12423 net.cpp:90] Creating Layer inception_4d/output_inception_4d/output_0_split
I1220 15:42:00.088064 12423 net.cpp:410] inception_4d/output_inception_4d/output_0_split <- inception_4d/output
I1220 15:42:00.088069 12423 net.cpp:368] inception_4d/output_inception_4d/output_0_split -> inception_4d/output_inception_4d/output_0_split_0
I1220 15:42:00.088078 12423 net.cpp:368] inception_4d/output_inception_4d/output_0_split -> inception_4d/output_inception_4d/output_0_split_1
I1220 15:42:00.088084 12423 net.cpp:368] inception_4d/output_inception_4d/output_0_split -> inception_4d/output_inception_4d/output_0_split_2
I1220 15:42:00.088090 12423 net.cpp:368] inception_4d/output_inception_4d/output_0_split -> inception_4d/output_inception_4d/output_0_split_3
I1220 15:42:00.088096 12423 net.cpp:368] inception_4d/output_inception_4d/output_0_split -> inception_4d/output_inception_4d/output_0_split_4
I1220 15:42:00.088102 12423 net.cpp:120] Setting up inception_4d/output_inception_4d/output_0_split
I1220 15:42:00.088109 12423 net.cpp:127] Top shape: 1 528 14 14 (103488)
I1220 15:42:00.088112 12423 net.cpp:127] Top shape: 1 528 14 14 (103488)
I1220 15:42:00.088116 12423 net.cpp:127] Top shape: 1 528 14 14 (103488)
I1220 15:42:00.088120 12423 net.cpp:127] Top shape: 1 528 14 14 (103488)
I1220 15:42:00.088124 12423 net.cpp:127] Top shape: 1 528 14 14 (103488)
I1220 15:42:00.088129 12423 layer_factory.hpp:74] Creating layer loss2/ave_pool
I1220 15:42:00.088134 12423 net.cpp:90] Creating Layer loss2/ave_pool
I1220 15:42:00.088137 12423 net.cpp:410] loss2/ave_pool <- inception_4d/output_inception_4d/output_0_split_0
I1220 15:42:00.088143 12423 net.cpp:368] loss2/ave_pool -> loss2/ave_pool
I1220 15:42:00.088150 12423 net.cpp:120] Setting up loss2/ave_pool
I1220 15:42:00.088155 12423 net.cpp:127] Top shape: 1 528 4 4 (8448)
I1220 15:42:00.088160 12423 layer_factory.hpp:74] Creating layer loss2/conv
I1220 15:42:00.088165 12423 net.cpp:90] Creating Layer loss2/conv
I1220 15:42:00.088171 12423 net.cpp:410] loss2/conv <- loss2/ave_pool
I1220 15:42:00.088176 12423 net.cpp:368] loss2/conv -> loss2/conv
I1220 15:42:00.088181 12423 net.cpp:120] Setting up loss2/conv
I1220 15:42:00.088642 12423 net.cpp:127] Top shape: 1 128 4 4 (2048)
I1220 15:42:00.088650 12423 layer_factory.hpp:74] Creating layer loss2/relu_conv_p
I1220 15:42:00.088655 12423 net.cpp:90] Creating Layer loss2/relu_conv_p
I1220 15:42:00.088660 12423 net.cpp:410] loss2/relu_conv_p <- loss2/conv
I1220 15:42:00.088665 12423 net.cpp:357] loss2/relu_conv_p -> loss2/conv (in-place)
I1220 15:42:00.088671 12423 net.cpp:120] Setting up loss2/relu_conv_p
I1220 15:42:00.088675 12423 net.cpp:127] Top shape: 1 128 4 4 (2048)
I1220 15:42:00.088680 12423 layer_factory.hpp:74] Creating layer loss2/fc
I1220 15:42:00.088685 12423 net.cpp:90] Creating Layer loss2/fc
I1220 15:42:00.088690 12423 net.cpp:410] loss2/fc <- loss2/conv
I1220 15:42:00.088696 12423 net.cpp:368] loss2/fc -> loss2/fc
I1220 15:42:00.088702 12423 net.cpp:120] Setting up loss2/fc
I1220 15:42:00.102948 12423 net.cpp:127] Top shape: 1 1024 (1024)
I1220 15:42:00.102977 12423 layer_factory.hpp:74] Creating layer loss2/relu_fc_p
I1220 15:42:00.102987 12423 net.cpp:90] Creating Layer loss2/relu_fc_p
I1220 15:42:00.102993 12423 net.cpp:410] loss2/relu_fc_p <- loss2/fc
I1220 15:42:00.102999 12423 net.cpp:357] loss2/relu_fc_p -> loss2/fc (in-place)
I1220 15:42:00.103008 12423 net.cpp:120] Setting up loss2/relu_fc_p
I1220 15:42:00.103013 12423 net.cpp:127] Top shape: 1 1024 (1024)
I1220 15:42:00.103016 12423 layer_factory.hpp:74] Creating layer loss2/drop_fc
I1220 15:42:00.103024 12423 net.cpp:90] Creating Layer loss2/drop_fc
I1220 15:42:00.103027 12423 net.cpp:410] loss2/drop_fc <- loss2/fc
I1220 15:42:00.103031 12423 net.cpp:357] loss2/drop_fc -> loss2/fc (in-place)
I1220 15:42:00.103037 12423 net.cpp:120] Setting up loss2/drop_fc
I1220 15:42:00.103044 12423 net.cpp:127] Top shape: 1 1024 (1024)
I1220 15:42:00.103046 12423 layer_factory.hpp:74] Creating layer loss2/classifier_MIT
I1220 15:42:00.103061 12423 net.cpp:90] Creating Layer loss2/classifier_MIT
I1220 15:42:00.103072 12423 net.cpp:410] loss2/classifier_MIT <- loss2/fc
I1220 15:42:00.103078 12423 net.cpp:368] loss2/classifier_MIT -> loss2/classifier_MIT
I1220 15:42:00.103086 12423 net.cpp:120] Setting up loss2/classifier_MIT
I1220 15:42:00.103565 12423 net.cpp:127] Top shape: 1 67 (67)
I1220 15:42:00.103574 12423 layer_factory.hpp:74] Creating layer loss2/classifier_MIT_loss2/classifier_MIT_0_split
I1220 15:42:00.103579 12423 net.cpp:90] Creating Layer loss2/classifier_MIT_loss2/classifier_MIT_0_split
I1220 15:42:00.103584 12423 net.cpp:410] loss2/classifier_MIT_loss2/classifier_MIT_0_split <- loss2/classifier_MIT
I1220 15:42:00.103590 12423 net.cpp:368] loss2/classifier_MIT_loss2/classifier_MIT_0_split -> loss2/classifier_MIT_loss2/classifier_MIT_0_split_0
I1220 15:42:00.103596 12423 net.cpp:368] loss2/classifier_MIT_loss2/classifier_MIT_0_split -> loss2/classifier_MIT_loss2/classifier_MIT_0_split_1
I1220 15:42:00.103602 12423 net.cpp:120] Setting up loss2/classifier_MIT_loss2/classifier_MIT_0_split
I1220 15:42:00.103607 12423 net.cpp:127] Top shape: 1 67 (67)
I1220 15:42:00.103611 12423 net.cpp:127] Top shape: 1 67 (67)
I1220 15:42:00.103615 12423 layer_factory.hpp:74] Creating layer loss2/loss
I1220 15:42:00.103621 12423 net.cpp:90] Creating Layer loss2/loss
I1220 15:42:00.103626 12423 net.cpp:410] loss2/loss <- loss2/classifier_MIT_loss2/classifier_MIT_0_split_0
I1220 15:42:00.103631 12423 net.cpp:410] loss2/loss <- label_data_1_split_2
I1220 15:42:00.103637 12423 net.cpp:368] loss2/loss -> loss2/loss1
…
I1220 15:42:00.103695 12423 net.cpp:368] loss2/top-1 -> loss2/top-1
I1220 15:42:00.103701 12423 net.cpp:120] Setting up loss2/top-1
I1220 15:42:00.103706 12423 net.cpp:127] Top shape: (1)
I1220 15:42:00.103710 12423 layer_factory.hpp:74] Creating layer inception_4e/1x1
I1220 15:42:00.103718 12423 net.cpp:90] Creating Layer inception_4e/1x1
I1220 15:42:00.103724 12423 net.cpp:410] inception_4e/1x1 <- inception_4d/output_inception_4d/output_0_split_1
I1220 15:42:00.103730 12423 net.cpp:368] inception_4e/1x1 -> inception_4e/1x1
I1220 15:42:00.103736 12423 net.cpp:120] Setting up inception_4e/1x1
I1220 15:42:00.104668 12423 net.cpp:127] Top shape: 1 256 14 14 (50176)
I1220 15:42:00.104677 12423 layer_factory.hpp:74] Creating layer inception_4e/relu_1x1_p
I1220 15:42:00.104683 12423 net.cpp:90] Creating Layer inception_4e/relu_1x1_p
I1220 15:42:00.104688 12423 net.cpp:410] inception_4e/relu_1x1_p <- inception_4e/1x1
I1220 15:42:00.104693 12423 net.cpp:357] inception_4e/relu_1x1_p -> inception_4e/1x1 (in-place)
I1220 15:42:00.104698 12423 net.cpp:120] Setting up inception_4e/relu_1x1_p
I1220 15:42:00.104703 12423 net.cpp:127] Top shape: 1 256 14 14 (50176)
I1220 15:42:00.104707 12423 layer_factory.hpp:74] Creating layer inception_4e/3x3_reduce
I1220 15:42:00.104714 12423 net.cpp:90] Creating Layer inception_4e/3x3_reduce
I1220 15:42:00.104718 12423 net.cpp:410] inception_4e/3x3_reduce <- inception_4d/output_inception_4d/output_0_split_2
I1220 15:42:00.104724 12423 net.cpp:368] inception_4e/3x3_reduce -> inception_4e/3x3_reduce
I1220 15:42:00.104730 12423 net.cpp:120] Setting up inception_4e/3x3_reduce
I1220 15:42:00.105307 12423 net.cpp:127] Top shape: 1 160 14 14 (31360)
I1220 15:42:00.105315 12423 layer_factory.hpp:74] Creating layer inception_4e/relu_3x3_reduce_p
I1220 15:42:00.105321 12423 net.cpp:90] Creating Layer inception_4e/relu_3x3_reduce_p
I1220 15:42:00.105330 12423 net.cpp:410] inception_4e/relu_3x3_reduce_p <- inception_4e/3x3_reduce
I1220 15:42:00.105340 12423 net.cpp:357] inception_4e/relu_3x3_reduce_p -> inception_4e/3x3_reduce (in-place)
I1220 15:42:00.105345 12423 net.cpp:120] Setting up inception_4e/relu_3x3_reduce_p
I1220 15:42:00.105350 12423 net.cpp:127] Top shape: 1 160 14 14 (31360)
I1220 15:42:00.105353 12423 layer_factory.hpp:74] Creating layer inception_4e/3x3
I1220 15:42:00.105372 12423 net.cpp:90] Creating Layer inception_4e/3x3
I1220 15:42:00.105377 12423 net.cpp:410] inception_4e/3x3 <- inception_4e/3x3_reduce
I1220 15:42:00.105382 12423 net.cpp:368] inception_4e/3x3 -> inception_4e/3x3
I1220 15:42:00.105388 12423 net.cpp:120] Setting up inception_4e/3x3
I1220 15:42:00.108559 12423 net.cpp:127] Top shape: 1 320 14 14 (62720)
I1220 15:42:00.108572 12423 layer_factory.hpp:74] Creating layer inception_4e/relu_3x3_p
I1220 15:42:00.108577 12423 net.cpp:90] Creating Layer inception_4e/relu_3x3_p
I1220 15:42:00.108582 12423 net.cpp:410] inception_4e/relu_3x3_p <- inception_4e/3x3
I1220 15:42:00.108588 12423 net.cpp:357] inception_4e/relu_3x3_p -> inception_4e/3x3 (in-place)
I1220 15:42:00.108594 12423 net.cpp:120] Setting up inception_4e/relu_3x3_p
I1220 15:42:00.108599 12423 net.cpp:127] Top shape: 1 320 14 14 (62720)
I1220 15:42:00.108603 12423 layer_factory.hpp:74] Creating layer inception_4e/5x5_reduce
I1220 15:42:00.108609 12423 net.cpp:90] Creating Layer inception_4e/5x5_reduce
I1220 15:42:00.108613 12423 net.cpp:410] inception_4e/5x5_reduce <- inception_4d/output_inception_4d/output_0_split_3
I1220 15:42:00.108620 12423 net.cpp:368] inception_4e/5x5_reduce -> inception_4e/5x5_reduce
I1220 15:42:00.108625 12423 net.cpp:120] Setting up inception_4e/5x5_reduce
I1220 15:42:00.108744 12423 net.cpp:127] Top shape: 1 32 14 14 (6272)
I1220 15:42:00.108752 12423 layer_factory.hpp:74] Creating layer inception_4e/relu_5x5_reduce_p
I1220 15:42:00.108757 12423 net.cpp:90] Creating Layer inception_4e/relu_5x5_reduce_p
I1220 15:42:00.108762 12423 net.cpp:410] inception_4e/relu_5x5_reduce_p <- inception_4e/5x5_reduce
I1220 15:42:00.108767 12423 net.cpp:357] inception_4e/relu_5x5_reduce_p -> inception_4e/5x5_reduce (in-place)
I1220 15:42:00.108772 12423 net.cpp:120] Setting up inception_4e/relu_5x5_reduce_p
I1220 15:42:00.108777 12423 net.cpp:127] Top shape: 1 32 14 14 (6272)
I1220 15:42:00.108780 12423 layer_factory.hpp:74] Creating layer inception_4e/5x5
I1220 15:42:00.108786 12423 net.cpp:90] Creating Layer inception_4e/5x5
I1220 15:42:00.108790 12423 net.cpp:410] inception_4e/5x5 <- inception_4e/5x5_reduce
I1220 15:42:00.108796 12423 net.cpp:368] inception_4e/5x5 -> inception_4e/5x5
I1220 15:42:00.108801 12423 net.cpp:120] Setting up inception_4e/5x5
I1220 15:42:00.109531 12423 net.cpp:127] Top shape: 1 128 14 14 (25088)
I1220 15:42:00.109539 12423 layer_factory.hpp:74] Creating layer inception_4e/relu_5x5_p
I1220 15:42:00.109544 12423 net.cpp:90] Creating Layer inception_4e/relu_5x5_p
I1220 15:42:00.109547 12423 net.cpp:410] inception_4e/relu_5x5_p <- inception_4e/5x5
I1220 15:42:00.109552 12423 net.cpp:357] inception_4e/relu_5x5_p -> inception_4e/5x5 (in-place)
I1220 15:42:00.109557 12423 net.cpp:120] Setting up inception_4e/relu_5x5_p
I1220 15:42:00.109562 12423 net.cpp:127] Top shape: 1 128 14 14 (25088)
I1220 15:42:00.109565 12423 layer_factory.hpp:74] Creating layer inception_4e/pool
I1220 15:42:00.109575 12423 net.cpp:90] Creating Layer inception_4e/pool
I1220 15:42:00.109578 12423 net.cpp:410] inception_4e/pool <- inception_4d/output_inception_4d/output_0_split_4
I1220 15:42:00.109585 12423 net.cpp:368] inception_4e/pool -> inception_4e/pool
I1220 15:42:00.109591 12423 net.cpp:120] Setting up inception_4e/pool
I1220 15:42:00.109597 12423 net.cpp:127] Top shape: 1 528 14 14 (103488)
I1220 15:42:00.109601 12423 layer_factory.hpp:74] Creating layer inception_4e/pool_proj
I1220 15:42:00.109607 12423 net.cpp:90] Creating Layer inception_4e/pool_proj
I1220 15:42:00.109612 12423 net.cpp:410] inception_4e/pool_proj <- inception_4e/pool
I1220 15:42:00.109622 12423 net.cpp:368] inception_4e/pool_proj -> inception_4e/pool_proj
I1220 15:42:00.109632 12423 net.cpp:120] Setting up inception_4e/pool_proj
I1220 15:42:00.110095 12423 net.cpp:127] Top shape: 1 128 14 14 (25088)
I1220 15:42:00.110103 12423 layer_factory.hpp:74] Creating layer inception_4e/relu_pool_proj_p
I1220 15:42:00.110108 12423 net.cpp:90] Creating Layer inception_4e/relu_pool_proj_p
I1220 15:42:00.110112 12423 net.cpp:410] inception_4e/relu_pool_proj_p <- inception_4e/pool_proj
I1220 15:42:00.110117 12423 net.cpp:357] inception_4e/relu_pool_proj_p -> inception_4e/pool_proj (in-place)
I1220 15:42:00.110122 12423 net.cpp:120] Setting up inception_4e/relu_pool_proj_p
I1220 15:42:00.110127 12423 net.cpp:127] Top shape: 1 128 14 14 (25088)
I1220 15:42:00.110131 12423 layer_factory.hpp:74] Creating layer inception_4e/output
I1220 15:42:00.110136 12423 net.cpp:90] Creating Layer inception_4e/output
I1220 15:42:00.110141 12423 net.cpp:410] inception_4e/output <- inception_4e/1x1
I1220 15:42:00.110144 12423 net.cpp:410] inception_4e/output <- inception_4e/3x3
I1220 15:42:00.110149 12423 net.cpp:410] inception_4e/output <- inception_4e/5x5
I1220 15:42:00.110153 12423 net.cpp:410] inception_4e/output <- inception_4e/pool_proj
I1220 15:42:00.110159 12423 net.cpp:368] inception_4e/output -> inception_4e/output
I1220 15:42:00.110165 12423 net.cpp:120] Setting up inception_4e/output
I1220 15:42:00.110172 12423 net.cpp:127] Top shape: 1 832 14 14 (163072)
I1220 15:42:00.110175 12423 layer_factory.hpp:74] Creating layer pool4/3x3_s2
I1220 15:42:00.110179 12423 net.cpp:90] Creating Layer pool4/3x3_s2
I1220 15:42:00.110184 12423 net.cpp:410] pool4/3x3_s2 <- inception_4e/output
I1220 15:42:00.110190 12423 net.cpp:368] pool4/3x3_s2 -> pool4/3x3_s2
I1220 15:42:00.110196 12423 net.cpp:120] Setting up pool4/3x3_s2
I1220 15:42:00.110203 12423 net.cpp:127] Top shape: 1 832 7 7 (40768)
I1220 15:42:00.110206 12423 layer_factory.hpp:74] Creating layer pool4/3x3_s2_pool4/3x3_s2_0_split
I1220 15:42:00.110211 12423 net.cpp:90] Creating Layer pool4/3x3_s2_pool4/3x3_s2_0_split
I1220 15:42:00.110215 12423 net.cpp:410] pool4/3x3_s2_pool4/3x3_s2_0_split <- pool4/3x3_s2
I1220 15:42:00.110231 12423 net.cpp:368] pool4/3x3_s2_pool4/3x3_s2_0_split -> pool4/3x3_s2_pool4/3x3_s2_0_split_0
I1220 15:42:00.110237 12423 net.cpp:368] pool4/3x3_s2_pool4/3x3_s2_0_split -> pool4/3x3_s2_pool4/3x3_s2_0_split_1
I1220 15:42:00.110244 12423 net.cpp:368] pool4/3x3_s2_pool4/3x3_s2_0_split -> pool4/3x3_s2_pool4/3x3_s2_0_split_2
I1220 15:42:00.110249 12423 net.cpp:368] pool4/3x3_s2_pool4/3x3_s2_0_split -> pool4/3x3_s2_pool4/3x3_s2_0_split_3
I1220 15:42:00.110255 12423 net.cpp:120] Setting up pool4/3x3_s2_pool4/3x3_s2_0_split
I1220 15:42:00.110270 12423 net.cpp:127] Top shape: 1 832 7 7 (40768)
I1220 15:42:00.110273 12423 net.cpp:127] Top shape: 1 832 7 7 (40768)
I1220 15:42:00.110277 12423 net.cpp:127] Top shape: 1 832 7 7 (40768)
I1220 15:42:00.110281 12423 net.cpp:127] Top shape: 1 832 7 7 (40768)
I1220 15:42:00.110285 12423 layer_factory.hpp:74] Creating layer inception_5a/1x1
I1220 15:42:00.110292 12423 net.cpp:90] Creating Layer inception_5a/1x1
I1220 15:42:00.110296 12423 net.cpp:410] inception_5a/1x1 <- pool4/3x3_s2_pool4/3x3_s2_0_split_0
I1220 15:42:00.110301 12423 net.cpp:368] inception_5a/1x1 -> inception_5a/1x1
I1220 15:42:00.110307 12423 net.cpp:120] Setting up inception_5a/1x1
I1220 15:42:00.111752 12423 net.cpp:127] Top shape: 1 256 7 7 (12544)
I1220 15:42:00.111759 12423 layer_factory.hpp:74] Creating layer inception_5a/relu_1x1_p
I1220 15:42:00.111764 12423 net.cpp:90] Creating Layer inception_5a/relu_1x1_p
I1220 15:42:00.111768 12423 net.cpp:410] inception_5a/relu_1x1_p <- inception_5a/1x1
I1220 15:42:00.111773 12423 net.cpp:357] inception_5a/relu_1x1_p -> inception_5a/1x1 (in-place)
I1220 15:42:00.111778 12423 net.cpp:120] Setting up inception_5a/relu_1x1_p
I1220 15:42:00.111783 12423 net.cpp:127] Top shape: 1 256 7 7 (12544)
I1220 15:42:00.111786 12423 layer_factory.hpp:74] Creating layer inception_5a/3x3_reduce
I1220 15:42:00.111793 12423 net.cpp:90] Creating Layer inception_5a/3x3_reduce
I1220 15:42:00.111800 12423 net.cpp:410] inception_5a/3x3_reduce <- pool4/3x3_s2_pool4/3x3_s2_0_split_1
I1220 15:42:00.111810 12423 net.cpp:368] inception_5a/3x3_reduce -> inception_5a/3x3_reduce
I1220 15:42:00.111816 12423 net.cpp:120] Setting up inception_5a/3x3_reduce
I1220 15:42:00.112756 12423 net.cpp:127] Top shape: 1 160 7 7 (7840)
I1220 15:42:00.112764 12423 layer_factory.hpp:74] Creating layer inception_5a/relu_3x3_reduce_p
I1220 15:42:00.112769 12423 net.cpp:90] Creating Layer inception_5a/relu_3x3_reduce_p
I1220 15:42:00.112774 12423 net.cpp:410] inception_5a/relu_3x3_reduce_p <- inception_5a/3x3_reduce
I1220 15:42:00.112779 12423 net.cpp:357] inception_5a/relu_3x3_reduce_p -> inception_5a/3x3_reduce (in-place)
I1220 15:42:00.112785 12423 net.cpp:120] Setting up inception_5a/relu_3x3_reduce_p
I1220 15:42:00.112790 12423 net.cpp:127] Top shape: 1 160 7 7 (7840)
I1220 15:42:00.112793 12423 layer_factory.hpp:74] Creating layer inception_5a/3x3
I1220 15:42:00.112799 12423 net.cpp:90] Creating Layer inception_5a/3x3
I1220 15:42:00.112803 12423 net.cpp:410] inception_5a/3x3 <- inception_5a/3x3_reduce
I1220 15:42:00.112809 12423 net.cpp:368] inception_5a/3x3 -> inception_5a/3x3
I1220 15:42:00.112815 12423 net.cpp:120] Setting up inception_5a/3x3
I1220 15:42:00.115989 12423 net.cpp:127] Top shape: 1 320 7 7 (15680)
I1220 15:42:00.116003 12423 layer_factory.hpp:74] Creating layer inception_5a/relu_3x3_p
I1220 15:42:00.116009 12423 net.cpp:90] Creating Layer inception_5a/relu_3x3_p
I1220 15:42:00.116017 12423 net.cpp:410] inception_5a/relu_3x3_p <- inception_5a/3x3
I1220 15:42:00.116022 12423 net.cpp:357] inception_5a/relu_3x3_p -> inception_5a/3x3 (in-place)
I1220 15:42:00.116029 12423 net.cpp:120] Setting up inception_5a/relu_3x3_p
I1220 15:42:00.116034 12423 net.cpp:127] Top shape: 1 320 7 7 (15680)
I1220 15:42:00.116037 12423 layer_factory.hpp:74] Creating layer inception_5a/5x5_reduce
I1220 15:42:00.116044 12423 net.cpp:90] Creating Layer inception_5a/5x5_reduce
I1220 15:42:00.116049 12423 net.cpp:410] inception_5a/5x5_reduce <- pool4/3x3_s2_pool4/3x3_s2_0_split_2
I1220 15:42:00.116055 12423 net.cpp:368] inception_5a/5x5_reduce -> inception_5a/5x5_reduce
I1220 15:42:00.116060 12423 net.cpp:120] Setting up inception_5a/5x5_reduce
I1220 15:42:00.116247 12423 net.cpp:127] Top shape: 1 32 7 7 (1568)
I1220 15:42:00.116255 12423 layer_factory.hpp:74] Creating layer inception_5a/relu_5x5_reduce_p
I1220 15:42:00.116261 12423 net.cpp:90] Creating Layer inception_5a/relu_5x5_reduce_p
I1220 15:42:00.116264 12423 net.cpp:410] inception_5a/relu_5x5_reduce_p <- inception_5a/5x5_reduce
I1220 15:42:00.116269 12423 net.cpp:357] inception_5a/relu_5x5_reduce_p -> inception_5a/5x5_reduce (in-place)
I1220 15:42:00.116276 12423 net.cpp:120] Setting up inception_5a/relu_5x5_reduce_p
I1220 15:42:00.116279 12423 net.cpp:127] Top shape: 1 32 7 7 (1568)
I1220 15:42:00.116283 12423 layer_factory.hpp:74] Creating layer inception_5a/5x5
I1220 15:42:00.116291 12423 net.cpp:90] Creating Layer inception_5a/5x5
I1220 15:42:00.116294 12423 net.cpp:410] inception_5a/5x5 <- inception_5a/5x5_reduce
I1220 15:42:00.116299 12423 net.cpp:368] inception_5a/5x5 -> inception_5a/5x5
I1220 15:42:00.116307 12423 net.cpp:120] Setting up inception_5a/5x5
I1220 15:42:00.117046 12423 net.cpp:127] Top shape: 1 128 7 7 (6272)
I1220 15:42:00.117055 12423 layer_factory.hpp:74] Creating layer inception_5a/relu_5x5_p
I1220 15:42:00.117060 12423 net.cpp:90] Creating Layer inception_5a/relu_5x5_p
I1220 15:42:00.117065 12423 net.cpp:410] inception_5a/relu_5x5_p <- inception_5a/5x5
I1220 15:42:00.117071 12423 net.cpp:357] inception_5a/relu_5x5_p -> inception_5a/5x5 (in-place)
I1220 15:42:00.117077 12423 net.cpp:120] Setting up inception_5a/relu_5x5_p
I1220 15:42:00.117081 12423 net.cpp:127] Top shape: 1 128 7 7 (6272)
I1220 15:42:00.117085 12423 layer_factory.hpp:74] Creating layer inception_5a/pool
I1220 15:42:00.117090 12423 net.cpp:90] Creating Layer inception_5a/pool
I1220 15:42:00.117095 12423 net.cpp:410] inception_5a/pool <- pool4/3x3_s2_pool4/3x3_s2_0_split_3
I1220 15:42:00.117105 12423 net.cpp:368] inception_5a/pool -> inception_5a/pool
I1220 15:42:00.117131 12423 net.cpp:120] Setting up inception_5a/pool
I1220 15:42:00.117141 12423 net.cpp:127] Top shape: 1 832 7 7 (40768)
I1220 15:42:00.117144 12423 layer_factory.hpp:74] Creating layer inception_5a/pool_proj
I1220 15:42:00.117151 12423 net.cpp:90] Creating Layer inception_5a/pool_proj
I1220 15:42:00.117154 12423 net.cpp:410] inception_5a/pool_proj <- inception_5a/pool
I1220 15:42:00.117161 12423 net.cpp:368] inception_5a/pool_proj -> inception_5a/pool_proj
I1220 15:42:00.117167 12423 net.cpp:120] Setting up inception_5a/pool_proj
I1220 15:42:00.117903 12423 net.cpp:127] Top shape: 1 128 7 7 (6272)
I1220 15:42:00.117910 12423 layer_factory.hpp:74] Creating layer inception_5a/relu_pool_proj_p
I1220 15:42:00.117915 12423 net.cpp:90] Creating Layer inception_5a/relu_pool_proj_p
I1220 15:42:00.117920 12423 net.cpp:410] inception_5a/relu_pool_proj_p <- inception_5a/pool_proj
I1220 15:42:00.117924 12423 net.cpp:357] inception_5a/relu_pool_proj_p -> inception_5a/pool_proj (in-place)
I1220 15:42:00.117930 12423 net.cpp:120] Setting up inception_5a/relu_pool_proj_p
I1220 15:42:00.117934 12423 net.cpp:127] Top shape: 1 128 7 7 (6272)
I1220 15:42:00.117938 12423 layer_factory.hpp:74] Creating layer inception_5a/output
I1220 15:42:00.117944 12423 net.cpp:90] Creating Layer inception_5a/output
I1220 15:42:00.117947 12423 net.cpp:410] inception_5a/output <- inception_5a/1x1
I1220 15:42:00.117952 12423 net.cpp:410] inception_5a/output <- inception_5a/3x3
I1220 15:42:00.117956 12423 net.cpp:410] inception_5a/output <- inception_5a/5x5
I1220 15:42:00.117960 12423 net.cpp:410] inception_5a/output <- inception_5a/pool_proj
I1220 15:42:00.117966 12423 net.cpp:368] inception_5a/output -> inception_5a/output
I1220 15:42:00.117972 12423 net.cpp:120] Setting up inception_5a/output
I1220 15:42:00.117979 12423 net.cpp:127] Top shape: 1 832 7 7 (40768)
I1220 15:42:00.117982 12423 layer_factory.hpp:74] Creating layer inception_5a/output_inception_5a/output_0_split
I1220 15:42:00.117987 12423 net.cpp:90] Creating Layer inception_5a/output_inception_5a/output_0_split
I1220 15:42:00.117991 12423 net.cpp:410] inception_5a/output_inception_5a/output_0_split <- inception_5a/output
I1220 15:42:00.117997 12423 net.cpp:368] inception_5a/output_inception_5a/output_0_split -> inception_5a/output_inception_5a/output_0_split_0
I1220 15:42:00.118005 12423 net.cpp:368] inception_5a/output_inception_5a/output_0_split -> inception_5a/output_inception_5a/output_0_split_1
I1220 15:42:00.118010 12423 net.cpp:368] inception_5a/output_inception_5a/output_0_split -> inception_5a/output_inception_5a/output_0_split_2
I1220 15:42:00.118016 12423 net.cpp:368] inception_5a/output_inception_5a/output_0_split -> inception_5a/output_inception_5a/output_0_split_3
I1220 15:42:00.118021 12423 net.cpp:120] Setting up inception_5a/output_inception_5a/output_0_split
I1220 15:42:00.118027 12423 net.cpp:127] Top shape: 1 832 7 7 (40768)
I1220 15:42:00.118031 12423 net.cpp:127] Top shape: 1 832 7 7 (40768)
I1220 15:42:00.118036 12423 net.cpp:127] Top shape: 1 832 7 7 (40768)
I1220 15:42:00.118041 12423 net.cpp:127] Top shape: 1 832 7 7 (40768)
I1220 15:42:00.118043 12423 layer_factory.hpp:74] Creating layer inception_5b/1x1
I1220 15:42:00.118051 12423 net.cpp:90] Creating Layer inception_5b/1x1
I1220 15:42:00.118054 12423 net.cpp:410] inception_5b/1x1 <- inception_5a/output_inception_5a/output_0_split_0
I1220 15:42:00.118060 12423 net.cpp:368] inception_5b/1x1 -> inception_5b/1x1
I1220 15:42:00.118067 12423 net.cpp:120] Setting up inception_5b/1x1
I1220 15:42:00.120228 12423 net.cpp:127] Top shape: 1 384 7 7 (18816)
I1220 15:42:00.120235 12423 layer_factory.hpp:74] Creating layer inception_5b/relu_1x1_p
I1220 15:42:00.120240 12423 net.cpp:90] Creating Layer inception_5b/relu_1x1_p
I1220 15:42:00.120244 12423 net.cpp:410] inception_5b/relu_1x1_p <- inception_5b/1x1
I1220 15:42:00.120250 12423 net.cpp:357] inception_5b/relu_1x1_p -> inception_5b/1x1 (in-place)
I1220 15:42:00.120260 12423 net.cpp:120] Setting up inception_5b/relu_1x1_p
I1220 15:42:00.120270 12423 net.cpp:127] Top shape: 1 384 7 7 (18816)
I1220 15:42:00.120273 12423 layer_factory.hpp:74] Creating layer inception_5b/3x3_reduce
I1220 15:42:00.120278 12423 net.cpp:90] Creating Layer inception_5b/3x3_reduce
I1220 15:42:00.120282 12423 net.cpp:410] inception_5b/3x3_reduce <- inception_5a/output_inception_5a/output_0_split_1
I1220 15:42:00.120288 12423 net.cpp:368] inception_5b/3x3_reduce -> inception_5b/3x3_reduce
I1220 15:42:00.120293 12423 net.cpp:120] Setting up inception_5b/3x3_reduce
I1220 15:42:00.121382 12423 net.cpp:127] Top shape: 1 192 7 7 (9408)
I1220 15:42:00.121390 12423 layer_factory.hpp:74] Creating layer inception_5b/relu_3x3_reduce_p
I1220 15:42:00.121395 12423 net.cpp:90] Creating Layer inception_5b/relu_3x3_reduce_p
I1220 15:42:00.121400 12423 net.cpp:410] inception_5b/relu_3x3_reduce_p <- inception_5b/3x3_reduce
I1220 15:42:00.121404 12423 net.cpp:357] inception_5b/relu_3x3_reduce_p -> inception_5b/3x3_reduce (in-place)
I1220 15:42:00.121410 12423 net.cpp:120] Setting up inception_5b/relu_3x3_reduce_p
I1220 15:42:00.121414 12423 net.cpp:127] Top shape: 1 192 7 7 (9408)
I1220 15:42:00.121418 12423 layer_factory.hpp:74] Creating layer inception_5b/3x3
I1220 15:42:00.121426 12423 net.cpp:90] Creating Layer inception_5b/3x3
I1220 15:42:00.121430 12423 net.cpp:410] inception_5b/3x3 <- inception_5b/3x3_reduce
I1220 15:42:00.121436 12423 net.cpp:368] inception_5b/3x3 -> inception_5b/3x3
I1220 15:42:00.121441 12423 net.cpp:120] Setting up inception_5b/3x3
I1220 15:42:00.125900 12423 net.cpp:127] Top shape: 1 384 7 7 (18816)
I1220 15:42:00.125913 12423 layer_factory.hpp:74] Creating layer inception_5b/relu_3x3_p
I1220 15:42:00.125921 12423 net.cpp:90] Creating Layer inception_5b/relu_3x3_p
I1220 15:42:00.125926 12423 net.cpp:410] inception_5b/relu_3x3_p <- inception_5b/3x3
I1220 15:42:00.125931 12423 net.cpp:357] inception_5b/relu_3x3_p -> inception_5b/3x3 (in-place)
I1220 15:42:00.125936 12423 net.cpp:120] Setting up inception_5b/relu_3x3_p
I1220 15:42:00.125941 12423 net.cpp:127] Top shape: 1 384 7 7 (18816)
I1220 15:42:00.125944 12423 layer_factory.hpp:74] Creating layer inception_5b/5x5_reduce
I1220 15:42:00.125952 12423 net.cpp:90] Creating Layer inception_5b/5x5_reduce
I1220 15:42:00.125955 12423 net.cpp:410] inception_5b/5x5_reduce <- inception_5a/output_inception_5a/output_0_split_2
I1220 15:42:00.125962 12423 net.cpp:368] inception_5b/5x5_reduce -> inception_5b/5x5_reduce
I1220 15:42:00.125967 12423 net.cpp:120] Setting up inception_5b/5x5_reduce
I1220 15:42:00.126243 12423 net.cpp:127] Top shape: 1 48 7 7 (2352)
I1220 15:42:00.126250 12423 layer_factory.hpp:74] Creating layer inception_5b/relu_5x5_reduce_p
I1220 15:42:00.126256 12423 net.cpp:90] Creating Layer inception_5b/relu_5x5_reduce_p
I1220 15:42:00.126260 12423 net.cpp:410] inception_5b/relu_5x5_reduce_p <- inception_5b/5x5_reduce
I1220 15:42:00.126266 12423 net.cpp:357] inception_5b/relu_5x5_reduce_p -> inception_5b/5x5_reduce (in-place)
I1220 15:42:00.126271 12423 net.cpp:120] Setting up inception_5b/relu_5x5_reduce_p
I1220 15:42:00.126276 12423 net.cpp:127] Top shape: 1 48 7 7 (2352)
I1220 15:42:00.126279 12423 layer_factory.hpp:74] Creating layer inception_5b/5x5
I1220 15:42:00.126286 12423 net.cpp:90] Creating Layer inception_5b/5x5
I1220 15:42:00.126288 12423 net.cpp:410] inception_5b/5x5 <- inception_5b/5x5_reduce
I1220 15:42:00.126296 12423 net.cpp:368] inception_5b/5x5 -> inception_5b/5x5
I1220 15:42:00.126301 12423 net.cpp:120] Setting up inception_5b/5x5
I1220 15:42:00.127327 12423 net.cpp:127] Top shape: 1 128 7 7 (6272)
I1220 15:42:00.127334 12423 layer_factory.hpp:74] Creating layer inception_5b/relu_5x5_p
I1220 15:42:00.127339 12423 net.cpp:90] Creating Layer inception_5b/relu_5x5_p
I1220 15:42:00.127343 12423 net.cpp:410] inception_5b/relu_5x5_p <- inception_5b/5x5
I1220 15:42:00.127348 12423 net.cpp:357] inception_5b/relu_5x5_p -> inception_5b/5x5 (in-place)
I1220 15:42:00.127354 12423 net.cpp:120] Setting up inception_5b/relu_5x5_p
I1220 15:42:00.127363 12423 net.cpp:127] Top shape: 1 128 7 7 (6272)
I1220 15:42:00.127372 12423 layer_factory.hpp:74] Creating layer inception_5b/pool
I1220 15:42:00.127378 12423 net.cpp:90] Creating Layer inception_5b/pool
I1220 15:42:00.127382 12423 net.cpp:410] inception_5b/pool <- inception_5a/output_inception_5a/output_0_split_3
I1220 15:42:00.127388 12423 net.cpp:368] inception_5b/pool -> inception_5b/pool
I1220 15:42:00.127394 12423 net.cpp:120] Setting up inception_5b/pool
I1220 15:42:00.127401 12423 net.cpp:127] Top shape: 1 832 7 7 (40768)
I1220 15:42:00.127405 12423 layer_factory.hpp:74] Creating layer inception_5b/pool_proj
I1220 15:42:00.127413 12423 net.cpp:90] Creating Layer inception_5b/pool_proj
I1220 15:42:00.127416 12423 net.cpp:410] inception_5b/pool_proj <- inception_5b/pool
I1220 15:42:00.127421 12423 net.cpp:368] inception_5b/pool_proj -> inception_5b/pool_proj
I1220 15:42:00.127427 12423 net.cpp:120] Setting up inception_5b/pool_proj
I1220 15:42:00.128141 12423 net.cpp:127] Top shape: 1 128 7 7 (6272)
I1220 15:42:00.128149 12423 layer_factory.hpp:74] Creating layer inception_5b/relu_pool_proj_p
I1220 15:42:00.128154 12423 net.cpp:90] Creating Layer inception_5b/relu_pool_proj_p
I1220 15:42:00.128159 12423 net.cpp:410] inception_5b/relu_pool_proj_p <- inception_5b/pool_proj
I1220 15:42:00.128165 12423 net.cpp:357] inception_5b/relu_pool_proj_p -> inception_5b/pool_proj (in-place)
I1220 15:42:00.128170 12423 net.cpp:120] Setting up inception_5b/relu_pool_proj_p
I1220 15:42:00.128175 12423 net.cpp:127] Top shape: 1 128 7 7 (6272)
I1220 15:42:00.128178 12423 layer_factory.hpp:74] Creating layer inception_5b/output
I1220 15:42:00.128183 12423 net.cpp:90] Creating Layer inception_5b/output
I1220 15:42:00.128187 12423 net.cpp:410] inception_5b/output <- inception_5b/1x1
I1220 15:42:00.128191 12423 net.cpp:410] inception_5b/output <- inception_5b/3x3
I1220 15:42:00.128196 12423 net.cpp:410] inception_5b/output <- inception_5b/5x5
I1220 15:42:00.128201 12423 net.cpp:410] inception_5b/output <- inception_5b/pool_proj
I1220 15:42:00.128206 12423 net.cpp:368] inception_5b/output -> inception_5b/output
I1220 15:42:00.128211 12423 net.cpp:120] Setting up inception_5b/output
I1220 15:42:00.128217 12423 net.cpp:127] Top shape: 1 1024 7 7 (50176)
I1220 15:42:00.128221 12423 layer_factory.hpp:74] Creating layer pool5/7x7_s1
I1220 15:42:00.128226 12423 net.cpp:90] Creating Layer pool5/7x7_s1
I1220 15:42:00.128232 12423 net.cpp:410] pool5/7x7_s1 <- inception_5b/output
I1220 15:42:00.128237 12423 net.cpp:368] pool5/7x7_s1 -> pool5/7x7_s1
I1220 15:42:00.128242 12423 net.cpp:120] Setting up pool5/7x7_s1
I1220 15:42:00.128248 12423 net.cpp:127] Top shape: 1 1024 1 1 (1024)
I1220 15:42:00.128252 12423 layer_factory.hpp:74] Creating layer pool5/drop_7x7_s1
I1220 15:42:00.128259 12423 net.cpp:90] Creating Layer pool5/drop_7x7_s1
I1220 15:42:00.128263 12423 net.cpp:410] pool5/drop_7x7_s1 <- pool5/7x7_s1
I1220 15:42:00.128268 12423 net.cpp:357] pool5/drop_7x7_s1 -> pool5/7x7_s1 (in-place)
I1220 15:42:00.128273 12423 net.cpp:120] Setting up pool5/drop_7x7_s1
I1220 15:42:00.128279 12423 net.cpp:127] Top shape: 1 1024 1 1 (1024)
I1220 15:42:00.128283 12423 layer_factory.hpp:74] Creating layer loss3/classifier_MIT
I1220 15:42:00.128290 12423 net.cpp:90] Creating Layer loss3/classifier_MIT
I1220 15:42:00.128294 12423 net.cpp:410] loss3/classifier_MIT <- pool5/7x7_s1
I1220 15:42:00.128300 12423 net.cpp:368] loss3/classifier_MIT -> loss3/classifier_MIT
I1220 15:42:00.128306 12423 net.cpp:120] Setting up loss3/classifier_MIT
I1220 15:42:00.128784 12423 net.cpp:127] Top shape: 1 67 (67)
I1220 15:42:00.128794 12423 layer_factory.hpp:74] Creating layer loss3/classifier_MIT_loss3/classifier_MIT_0_split
I1220 15:42:00.128800 12423 net.cpp:90] Creating Layer loss3/classifier_MIT_loss3/classifier_MIT_0_split
I1220 15:42:00.128804 12423 net.cpp:410] loss3/classifier_MIT_loss3/classifier_MIT_0_split <- loss3/classifier_MIT
I1220 15:42:00.128809 12423 net.cpp:368] loss3/classifier_MIT_loss3/classifier_MIT_0_split -> loss3/classifier_MIT_loss3/classifier_MIT_0_split_0
I1220 15:42:00.128820 12423 net.cpp:368] loss3/classifier_MIT_loss3/classifier_MIT_0_split -> loss3/classifier_MIT_loss3/classifier_MIT_0_split_1
I1220 15:42:00.128831 12423 net.cpp:120] Setting up loss3/classifier_MIT_loss3/classifier_MIT_0_split
I1220 15:42:00.128836 12423 net.cpp:127] Top shape: 1 67 (67)
I1220 15:42:00.128841 12423 net.cpp:127] Top shape: 1 67 (67)
I1220 15:42:00.128844 12423 layer_factory.hpp:74] Creating layer loss3/loss3
I1220 15:42:00.128850 12423 net.cpp:90] Creating Layer loss3/loss3
I1220 15:42:00.128854 12423 net.cpp:410] loss3/loss3 <- loss3/classifier_MIT_loss3/classifier_MIT_0_split_0
I1220 15:42:00.128859 12423 net.cpp:410] loss3/loss3 <- label_data_1_split_4
I1220 15:42:00.128865 12423 net.cpp:368] loss3/loss3 -> loss3/loss3
…
